I0227 10:04:07.000404 23139 caffe.cpp:308] Use GPU with device ID 0
I0227 10:04:07.356587 23139 common.cpp:128] Start to init xgboost ......
I0227 10:04:07.357837 23139 common.cpp:162] Init xgboost finished!
I0227 10:04:07.360616 23139 net.cpp:49] Initializing net from parameters: 
state {
  phase: TRAIN
}
layer {
  name: "Data1"
  type: "Data"
  top: "Data1"
  top: "Data2"
  data_param {
    source: "/home/shshi/data/caffe/fake_data26752.lmdb"
    batch_size: 128
    backend: LMDB
  }
}
layer {
  name: "InnerProduct1"
  type: "InnerProduct"
  bottom: "Data1"
  top: "InnerProduct1"
  inner_product_param {
    num_output: 4096
  }
}
layer {
  name: "Sigmoid1"
  type: "Sigmoid"
  bottom: "InnerProduct1"
  top: "InnerProduct1"
}
layer {
  name: "InnerProduct2"
  type: "InnerProduct"
  bottom: "InnerProduct1"
  top: "InnerProduct2"
  inner_product_param {
    num_output: 4096
  }
}
layer {
  name: "Sigmoid2"
  type: "Sigmoid"
  bottom: "InnerProduct2"
  top: "InnerProduct2"
}
layer {
  name: "InnerProduct3"
  type: "InnerProduct"
  bottom: "InnerProduct2"
  top: "InnerProduct3"
  inner_product_param {
    num_output: 26752
  }
}
layer {
  name: "SoftmaxWithLoss1"
  type: "SoftmaxWithLoss"
  bottom: "InnerProduct3"
  bottom: "Data2"
  top: "SoftmaxWithLoss1"
}
I0227 10:04:07.360695 23139 layer_factory.hpp:77] Creating layer Data1
I0227 10:04:07.361299 23139 net.cpp:91] Creating Layer Data1
I0227 10:04:07.361315 23139 net.cpp:399] Data1 -> Data1
I0227 10:04:07.361382 23139 net.cpp:399] Data1 -> Data2
I0227 10:04:07.362684 23167 common.cpp:128] Start to init xgboost ......
I0227 10:04:07.363667 23167 common.cpp:162] Init xgboost finished!
I0227 10:04:07.363895 23167 db_lmdb.cpp:35] Opened lmdb /home/shshi/data/caffe/fake_data26752.lmdb
I0227 10:04:07.383302 23139 data_layer.cpp:41] output data size: 128,1,1,26752
I0227 10:04:07.409497 23139 net.cpp:141] Setting up Data1
I0227 10:04:07.409600 23139 net.cpp:148] Top shape: 128 1 1 26752 (3424256)
I0227 10:04:07.409613 23139 net.cpp:148] Top shape: 128 (128)
I0227 10:04:07.409618 23139 net.cpp:156] Memory required for data: 13697536
I0227 10:04:07.409629 23139 layer_factory.hpp:77] Creating layer InnerProduct1
I0227 10:04:07.409646 23139 net.cpp:91] Creating Layer InnerProduct1
I0227 10:04:07.409653 23139 net.cpp:425] InnerProduct1 <- Data1
I0227 10:04:07.409670 23139 net.cpp:399] InnerProduct1 -> InnerProduct1
I0227 10:04:07.557001 23179 common.cpp:128] Start to init xgboost ......
I0227 10:04:07.558612 23179 common.cpp:162] Init xgboost finished!
I0227 10:04:07.662314 23139 net.cpp:141] Setting up InnerProduct1
I0227 10:04:07.662354 23139 net.cpp:148] Top shape: 128 4096 (524288)
I0227 10:04:07.662358 23139 net.cpp:156] Memory required for data: 15794688
I0227 10:04:07.662385 23139 layer_factory.hpp:77] Creating layer Sigmoid1
I0227 10:04:07.662402 23139 net.cpp:91] Creating Layer Sigmoid1
I0227 10:04:07.662422 23139 net.cpp:425] Sigmoid1 <- InnerProduct1
I0227 10:04:07.662430 23139 net.cpp:386] Sigmoid1 -> InnerProduct1 (in-place)
I0227 10:04:07.812882 23139 net.cpp:141] Setting up Sigmoid1
I0227 10:04:07.812917 23139 net.cpp:148] Top shape: 128 4096 (524288)
I0227 10:04:07.812922 23139 net.cpp:156] Memory required for data: 17891840
I0227 10:04:07.812928 23139 layer_factory.hpp:77] Creating layer InnerProduct2
I0227 10:04:07.812939 23139 net.cpp:91] Creating Layer InnerProduct2
I0227 10:04:07.812944 23139 net.cpp:425] InnerProduct2 <- InnerProduct1
I0227 10:04:07.812952 23139 net.cpp:399] InnerProduct2 -> InnerProduct2
I0227 10:04:07.843713 23139 net.cpp:141] Setting up InnerProduct2
I0227 10:04:07.843751 23139 net.cpp:148] Top shape: 128 4096 (524288)
I0227 10:04:07.843755 23139 net.cpp:156] Memory required for data: 19988992
I0227 10:04:07.843767 23139 layer_factory.hpp:77] Creating layer Sigmoid2
I0227 10:04:07.843778 23139 net.cpp:91] Creating Layer Sigmoid2
I0227 10:04:07.843783 23139 net.cpp:425] Sigmoid2 <- InnerProduct2
I0227 10:04:07.843789 23139 net.cpp:386] Sigmoid2 -> InnerProduct2 (in-place)
I0227 10:04:07.843969 23139 net.cpp:141] Setting up Sigmoid2
I0227 10:04:07.843978 23139 net.cpp:148] Top shape: 128 4096 (524288)
I0227 10:04:07.843992 23139 net.cpp:156] Memory required for data: 22086144
I0227 10:04:07.844004 23139 layer_factory.hpp:77] Creating layer InnerProduct3
I0227 10:04:07.844012 23139 net.cpp:91] Creating Layer InnerProduct3
I0227 10:04:07.844015 23139 net.cpp:425] InnerProduct3 <- InnerProduct2
I0227 10:04:07.844020 23139 net.cpp:399] InnerProduct3 -> InnerProduct3
I0227 10:04:08.043812 23139 net.cpp:141] Setting up InnerProduct3
I0227 10:04:08.043850 23139 net.cpp:148] Top shape: 128 26752 (3424256)
I0227 10:04:08.043855 23139 net.cpp:156] Memory required for data: 35783168
I0227 10:04:08.043869 23139 layer_factory.hpp:77] Creating layer SoftmaxWithLoss1
I0227 10:04:08.043882 23139 net.cpp:91] Creating Layer SoftmaxWithLoss1
I0227 10:04:08.043887 23139 net.cpp:425] SoftmaxWithLoss1 <- InnerProduct3
I0227 10:04:08.043893 23139 net.cpp:425] SoftmaxWithLoss1 <- Data2
I0227 10:04:08.043900 23139 net.cpp:399] SoftmaxWithLoss1 -> SoftmaxWithLoss1
…
