I0226 22:42:07.661754  8531 caffe.cpp:308] Use GPU with device ID 0
I0226 22:42:07.993860  8531 net.cpp:49] Initializing net from parameters: 
state {
  phase: TRAIN
}
layer {
  name: "Data1"
  type: "Data"
  top: "Data1"
  top: "Data2"
  data_param {
    source: "/home/dl/data/caffe/fake_data26752.lmdb"
    batch_size: 2048
    backend: LMDB
  }
}
layer {
  name: "InnerProduct1"
  type: "InnerProduct"
  bottom: "Data1"
  top: "InnerProduct1"
  inner_product_param {
    num_output: 4096
  }
}
layer {
  name: "Sigmoid1"
  type: "Sigmoid"
  bottom: "InnerProduct1"
  top: "InnerProduct1"
}
layer {
  name: "InnerProduct2"
  type: "InnerProduct"
  bottom: "InnerProduct1"
  top: "InnerProduct2"
  inner_product_param {
    num_output: 4096
  }
}
layer {
  name: "Sigmoid2"
  type: "Sigmoid"
  bottom: "InnerProduct2"
  top: "InnerProduct2"
}
layer {
  name: "InnerProduct3"
  type: "InnerProduct"
  bottom: "InnerProduct2"
  top: "InnerProduct3"
  inner_product_param {
    num_output: 26752
  }
}
layer {
  name: "SoftmaxWithLoss1"
  type: "SoftmaxWithLoss"
  bottom: "InnerProduct3"
  bottom: "Data2"
  top: "SoftmaxWithLoss1"
}
I0226 22:42:07.993944  8531 layer_factory.hpp:77] Creating layer Data1
I0226 22:42:07.995107  8531 net.cpp:91] Creating Layer Data1
I0226 22:42:07.995123  8531 net.cpp:399] Data1 -> Data1
I0226 22:42:07.995147  8531 net.cpp:399] Data1 -> Data2
I0226 22:42:07.996618  8539 db_lmdb.cpp:35] Opened lmdb /home/dl/data/caffe/fake_data26752.lmdb
I0226 22:42:08.012918  8531 data_layer.cpp:41] output data size: 2048,1,1,26752
I0226 22:42:08.330027  8531 net.cpp:141] Setting up Data1
I0226 22:42:08.330087  8531 net.cpp:148] Top shape: 2048 1 1 26752 (54788096)
I0226 22:42:08.330097  8531 net.cpp:148] Top shape: 2048 (2048)
I0226 22:42:08.330103  8531 net.cpp:156] Memory required for data: 219160576
I0226 22:42:08.330116  8531 layer_factory.hpp:77] Creating layer InnerProduct1
I0226 22:42:08.330138  8531 net.cpp:91] Creating Layer InnerProduct1
I0226 22:42:08.330147  8531 net.cpp:425] InnerProduct1 <- Data1
I0226 22:42:08.330163  8531 net.cpp:399] InnerProduct1 -> InnerProduct1
I0226 22:42:08.511142  8531 net.cpp:141] Setting up InnerProduct1
I0226 22:42:08.511188  8531 net.cpp:148] Top shape: 2048 4096 (8388608)
I0226 22:42:08.511194  8531 net.cpp:156] Memory required for data: 252715008
I0226 22:42:08.511217  8531 layer_factory.hpp:77] Creating layer Sigmoid1
I0226 22:42:08.511235  8531 net.cpp:91] Creating Layer Sigmoid1
I0226 22:42:08.511243  8531 net.cpp:425] Sigmoid1 <- InnerProduct1
I0226 22:42:08.511252  8531 net.cpp:386] Sigmoid1 -> InnerProduct1 (in-place)
I0226 22:42:08.788933  8531 net.cpp:141] Setting up Sigmoid1
I0226 22:42:08.788975  8531 net.cpp:148] Top shape: 2048 4096 (8388608)
I0226 22:42:08.788983  8531 net.cpp:156] Memory required for data: 286269440
I0226 22:42:08.788992  8531 layer_factory.hpp:77] Creating layer InnerProduct2
I0226 22:42:08.789005  8531 net.cpp:91] Creating Layer InnerProduct2
I0226 22:42:08.789013  8531 net.cpp:425] InnerProduct2 <- InnerProduct1
I0226 22:42:08.789024  8531 net.cpp:399] InnerProduct2 -> InnerProduct2
I0226 22:42:08.816763  8531 net.cpp:141] Setting up InnerProduct2
I0226 22:42:08.816817  8531 net.cpp:148] Top shape: 2048 4096 (8388608)
I0226 22:42:08.816826  8531 net.cpp:156] Memory required for data: 319823872
I0226 22:42:08.816846  8531 layer_factory.hpp:77] Creating layer Sigmoid2
I0226 22:42:08.816862  8531 net.cpp:91] Creating Layer Sigmoid2
I0226 22:42:08.816871  8531 net.cpp:425] Sigmoid2 <- InnerProduct2
I0226 22:42:08.816881  8531 net.cpp:386] Sigmoid2 -> InnerProduct2 (in-place)
I0226 22:42:08.819097  8531 net.cpp:141] Setting up Sigmoid2
I0226 22:42:08.819140  8531 net.cpp:148] Top shape: 2048 4096 (8388608)
I0226 22:42:08.819149  8531 net.cpp:156] Memory required for data: 353378304
I0226 22:42:08.819159  8531 layer_factory.hpp:77] Creating layer InnerProduct3
I0226 22:42:08.819175  8531 net.cpp:91] Creating Layer InnerProduct3
I0226 22:42:08.819182  8531 net.cpp:425] InnerProduct3 <- InnerProduct2
I0226 22:42:08.819193  8531 net.cpp:399] InnerProduct3 -> InnerProduct3
I0226 22:42:08.996543  8531 net.cpp:141] Setting up InnerProduct3
I0226 22:42:08.996599  8531 net.cpp:148] Top shape: 2048 26752 (54788096)
I0226 22:42:08.996608  8531 net.cpp:156] Memory required for data: 572530688
I0226 22:42:08.996625  8531 layer_factory.hpp:77] Creating layer SoftmaxWithLoss1
I0226 22:42:08.996639  8531 net.cpp:91] Creating Layer SoftmaxWithLoss1
I0226 22:42:08.996646  8531 net.cpp:425] SoftmaxWithLoss1 <- InnerProduct3
I0226 22:42:08.996655  8531 net.cpp:425] SoftmaxWithLoss1 <- Data2
I0226 22:42:08.996666  8531 net.cpp:399] SoftmaxWithLoss1 -> SoftmaxWithLoss1
…
