…
I0227 23:14:56.679704 39117 common.cpp:128] Start to init xgboost ......
[23:14:56] include/dmlc/logging.h:235: [23:14:56] src/io/local_filesys.cc:154: Check failed: allow_null  LocalFileSystem: fail to open "/tmp/xgboostgemm2.model"
I0227 23:14:56.693889 39117 common.cpp:163] Init xgboost finished!
I0227 23:14:56.697369 39117 net.cpp:49] Initializing net from parameters: 
state {
  phase: TRAIN
}
layer {
  name: "Data1"
  type: "Data"
  top: "Data1"
  top: "Data2"
  data_param {
    source: "/home/comp/csshshi/data/caffe/fake_data26752.lmdb"
    batch_size: 512
    backend: LMDB
  }
}
layer {
  name: "InnerProduct1"
  type: "InnerProduct"
  bottom: "Data1"
  top: "InnerProduct1"
  inner_product_param {
    num_output: 4096
  }
}
layer {
  name: "Sigmoid1"
  type: "Sigmoid"
  bottom: "InnerProduct1"
  top: "InnerProduct1"
}
layer {
  name: "InnerProduct2"
  type: "InnerProduct"
  bottom: "InnerProduct1"
  top: "InnerProduct2"
  inner_product_param {
    num_output: 4096
  }
}
layer {
  name: "Sigmoid2"
  type: "Sigmoid"
  bottom: "InnerProduct2"
  top: "InnerProduct2"
}
layer {
  name: "InnerProduct3"
  type: "InnerProduct"
  bottom: "InnerProduct2"
  top: "InnerProduct3"
  inner_product_param {
    num_output: 26752
  }
}
layer {
  name: "SoftmaxWithLoss1"
  type: "SoftmaxWithLoss"
  bottom: "InnerProduct3"
  bottom: "Data2"
  top: "SoftmaxWithLoss1"
}
I0227 23:14:56.697466 39117 layer_factory.hpp:77] Creating layer Data1
I0227 23:14:56.698487 39117 net.cpp:91] Creating Layer Data1
I0227 23:14:56.698508 39117 net.cpp:399] Data1 -> Data1
I0227 23:14:56.698603 39117 net.cpp:399] Data1 -> Data2
I0227 23:14:56.700176 39159 common.cpp:128] Start to init xgboost ......
[23:14:56] include/dmlc/logging.h:235: [23:14:56] src/io/local_filesys.cc:154: Check failed: allow_null  LocalFileSystem: fail to open "/tmp/xgboostgemm2.model"
I0227 23:14:56.703444 39159 common.cpp:163] Init xgboost finished!
I0227 23:14:56.705083 39159 db_lmdb.cpp:35] Opened lmdb /home/comp/csshshi/data/caffe/fake_data26752.lmdb
I0227 23:14:56.720382 39117 data_layer.cpp:41] output data size: 512,1,1,26752
I0227 23:14:56.876504 39117 net.cpp:141] Setting up Data1
I0227 23:14:56.876617 39117 net.cpp:148] Top shape: 512 1 1 26752 (13697024)
I0227 23:14:56.876626 39117 net.cpp:148] Top shape: 512 (512)
I0227 23:14:56.876631 39117 net.cpp:156] Memory required for data: 54790144
I0227 23:14:56.876648 39117 layer_factory.hpp:77] Creating layer InnerProduct1
I0227 23:14:56.876682 39117 net.cpp:91] Creating Layer InnerProduct1
I0227 23:14:56.876695 39117 net.cpp:425] InnerProduct1 <- Data1
I0227 23:14:56.876716 39117 net.cpp:399] InnerProduct1 -> InnerProduct1
I0227 23:14:57.104449 39199 common.cpp:128] Start to init xgboost ......
[23:14:57] include/dmlc/logging.h:235: [23:14:57] src/io/local_filesys.cc:154: Check failed: allow_null  LocalFileSystem: fail to open "/tmp/xgboostgemm2.model"
I0227 23:14:57.108312 39199 common.cpp:163] Init xgboost finished!
I0227 23:14:57.151372 39199 blocking_queue.cpp:50] Waiting for data
I0227 23:14:57.250460 39117 net.cpp:141] Setting up InnerProduct1
I0227 23:14:57.250517 39117 net.cpp:148] Top shape: 512 4096 (2097152)
I0227 23:14:57.250522 39117 net.cpp:156] Memory required for data: 63178752
I0227 23:14:57.250569 39117 layer_factory.hpp:77] Creating layer Sigmoid1
I0227 23:14:57.250592 39117 net.cpp:91] Creating Layer Sigmoid1
I0227 23:14:57.250598 39117 net.cpp:425] Sigmoid1 <- InnerProduct1
I0227 23:14:57.250605 39117 net.cpp:386] Sigmoid1 -> InnerProduct1 (in-place)
I0227 23:14:57.555485 39117 net.cpp:141] Setting up Sigmoid1
I0227 23:14:57.555546 39117 net.cpp:148] Top shape: 512 4096 (2097152)
I0227 23:14:57.555550 39117 net.cpp:156] Memory required for data: 71567360
I0227 23:14:57.555570 39117 layer_factory.hpp:77] Creating layer InnerProduct2
I0227 23:14:57.555640 39117 net.cpp:91] Creating Layer InnerProduct2
I0227 23:14:57.555649 39117 net.cpp:425] InnerProduct2 <- InnerProduct1
I0227 23:14:57.555678 39117 net.cpp:399] InnerProduct2 -> InnerProduct2
I0227 23:14:57.614135 39117 net.cpp:141] Setting up InnerProduct2
I0227 23:14:57.614199 39117 net.cpp:148] Top shape: 512 4096 (2097152)
I0227 23:14:57.614205 39117 net.cpp:156] Memory required for data: 79955968
I0227 23:14:57.614229 39117 layer_factory.hpp:77] Creating layer Sigmoid2
I0227 23:14:57.614284 39117 net.cpp:91] Creating Layer Sigmoid2
I0227 23:14:57.614290 39117 net.cpp:425] Sigmoid2 <- InnerProduct2
I0227 23:14:57.614300 39117 net.cpp:386] Sigmoid2 -> InnerProduct2 (in-place)
I0227 23:14:57.614579 39117 net.cpp:141] Setting up Sigmoid2
I0227 23:14:57.614624 39117 net.cpp:148] Top shape: 512 4096 (2097152)
I0227 23:14:57.614629 39117 net.cpp:156] Memory required for data: 88344576
I0227 23:14:57.614634 39117 layer_factory.hpp:77] Creating layer InnerProduct3
I0227 23:14:57.614645 39117 net.cpp:91] Creating Layer InnerProduct3
I0227 23:14:57.614650 39117 net.cpp:425] InnerProduct3 <- InnerProduct2
I0227 23:14:57.614657 39117 net.cpp:399] InnerProduct3 -> InnerProduct3
I0227 23:14:58.000663 39117 net.cpp:141] Setting up InnerProduct3
I0227 23:14:58.000732 39117 net.cpp:148] Top shape: 512 26752 (13697024)
I0227 23:14:58.000737 39117 net.cpp:156] Memory required for data: 143132672
I0227 23:14:58.000762 39117 layer_factory.hpp:77] Creating layer SoftmaxWithLoss1
I0227 23:14:58.000788 39117 net.cpp:91] Creating Layer SoftmaxWithLoss1
I0227 23:14:58.000797 39117 net.cpp:425] SoftmaxWithLoss1 <- InnerProduct3
I0227 23:14:58.000807 39117 net.cpp:425] SoftmaxWithLoss1 <- Data2
I0227 23:14:58.000816 39117 net.cpp:399] SoftmaxWithLoss1 -> SoftmaxWithLoss1
…
