I0227 00:12:22.400408 106988 caffe.cpp:343] Use GPU with device ID 0
I0227 00:12:23.009943 106988 net.cpp:58] Initializing net from parameters: 
state {
  phase: TRAIN
  level: 0
  stage: ""
}
layer {
  name: "Data1"
  type: "Data"
  top: "Data1"
  top: "Data2"
  data_param {
    source: "/home/comp/csshshi/data/caffe/fake_data26752.lmdb"
    batch_size: 2048
    backend: LMDB
  }
}
layer {
  name: "InnerProduct1"
  type: "InnerProduct"
  bottom: "Data1"
  top: "InnerProduct1"
  inner_product_param {
    num_output: 4096
  }
}
layer {
  name: "Sigmoid1"
  type: "Sigmoid"
  bottom: "InnerProduct1"
  top: "InnerProduct1"
}
layer {
  name: "InnerProduct2"
  type: "InnerProduct"
  bottom: "InnerProduct1"
  top: "InnerProduct2"
  inner_product_param {
    num_output: 4096
  }
}
layer {
  name: "Sigmoid2"
  type: "Sigmoid"
  bottom: "InnerProduct2"
  top: "InnerProduct2"
}
layer {
  name: "InnerProduct3"
  type: "InnerProduct"
  bottom: "InnerProduct2"
  top: "InnerProduct3"
  inner_product_param {
    num_output: 26752
  }
}
layer {
  name: "SoftmaxWithLoss1"
  type: "SoftmaxWithLoss"
  bottom: "InnerProduct3"
  bottom: "Data2"
  top: "SoftmaxWithLoss1"
}
I0227 00:12:23.010084 106988 layer_factory.hpp:77] Creating layer Data1
I0227 00:12:23.013411 106988 net.cpp:100] Creating Layer Data1
I0227 00:12:23.013448 106988 net.cpp:408] Data1 -> Data1
I0227 00:12:23.013533 106988 net.cpp:408] Data1 -> Data2
I0227 00:12:23.017163 106991 db_lmdb.cpp:35] Opened lmdb /home/comp/csshshi/data/caffe/fake_data26752.lmdb
I0227 00:12:23.044430 106988 data_layer.cpp:41] output data size: 2048,1,1,26752
I0227 00:12:23.499953 106988 net.cpp:150] Setting up Data1
I0227 00:12:23.500027 106988 net.cpp:157] Top shape: 2048 1 1 26752 (54788096)
I0227 00:12:23.500036 106988 net.cpp:157] Top shape: 2048 (2048)
I0227 00:12:23.500039 106988 net.cpp:165] Memory required for data: 219160576
I0227 00:12:23.500053 106988 layer_factory.hpp:77] Creating layer InnerProduct1
I0227 00:12:23.500074 106988 net.cpp:100] Creating Layer InnerProduct1
I0227 00:12:23.500082 106988 net.cpp:434] InnerProduct1 <- Data1
I0227 00:12:23.500098 106988 net.cpp:408] InnerProduct1 -> InnerProduct1
I0227 00:12:23.802389 106988 net.cpp:150] Setting up InnerProduct1
I0227 00:12:23.802438 106988 net.cpp:157] Top shape: 2048 4096 (8388608)
I0227 00:12:23.802443 106988 net.cpp:165] Memory required for data: 252715008
I0227 00:12:23.802501 106988 layer_factory.hpp:77] Creating layer Sigmoid1
I0227 00:12:23.802553 106988 net.cpp:100] Creating Layer Sigmoid1
I0227 00:12:23.802561 106988 net.cpp:434] Sigmoid1 <- InnerProduct1
I0227 00:12:23.802572 106988 net.cpp:395] Sigmoid1 -> InnerProduct1 (in-place)
I0227 00:12:23.810030 106992 blocking_queue.cpp:50] Waiting for data
I0227 00:12:24.093992 106992 blocking_queue.cpp:50] Waiting for data
I0227 00:12:24.100231 106988 net.cpp:150] Setting up Sigmoid1
I0227 00:12:24.100276 106988 net.cpp:157] Top shape: 2048 4096 (8388608)
I0227 00:12:24.100283 106988 net.cpp:165] Memory required for data: 286269440
I0227 00:12:24.100294 106988 layer_factory.hpp:77] Creating layer InnerProduct2
I0227 00:12:24.100334 106988 net.cpp:100] Creating Layer InnerProduct2
I0227 00:12:24.100342 106988 net.cpp:434] InnerProduct2 <- InnerProduct1
I0227 00:12:24.100354 106988 net.cpp:408] InnerProduct2 -> InnerProduct2
I0227 00:12:24.147367 106988 net.cpp:150] Setting up InnerProduct2
I0227 00:12:24.147413 106988 net.cpp:157] Top shape: 2048 4096 (8388608)
I0227 00:12:24.147418 106988 net.cpp:165] Memory required for data: 319823872
I0227 00:12:24.147434 106988 layer_factory.hpp:77] Creating layer Sigmoid2
I0227 00:12:24.147449 106988 net.cpp:100] Creating Layer Sigmoid2
I0227 00:12:24.147455 106988 net.cpp:434] Sigmoid2 <- InnerProduct2
I0227 00:12:24.147464 106988 net.cpp:395] Sigmoid2 -> InnerProduct2 (in-place)
I0227 00:12:24.147712 106988 net.cpp:150] Setting up Sigmoid2
I0227 00:12:24.147725 106988 net.cpp:157] Top shape: 2048 4096 (8388608)
I0227 00:12:24.147730 106988 net.cpp:165] Memory required for data: 353378304
I0227 00:12:24.147737 106988 layer_factory.hpp:77] Creating layer InnerProduct3
I0227 00:12:24.147753 106988 net.cpp:100] Creating Layer InnerProduct3
I0227 00:12:24.147789 106988 net.cpp:434] InnerProduct3 <- InnerProduct2
I0227 00:12:24.147797 106988 net.cpp:408] InnerProduct3 -> InnerProduct3
I0227 00:12:24.433331 106988 net.cpp:150] Setting up InnerProduct3
I0227 00:12:24.433408 106988 net.cpp:157] Top shape: 2048 26752 (54788096)
I0227 00:12:24.433413 106988 net.cpp:165] Memory required for data: 572530688
I0227 00:12:24.433429 106988 layer_factory.hpp:77] Creating layer SoftmaxWithLoss1
I0227 00:12:24.433454 106988 net.cpp:100] Creating Layer SoftmaxWithLoss1
I0227 00:12:24.433461 106988 net.cpp:434] SoftmaxWithLoss1 <- InnerProduct3
I0227 00:12:24.433468 106988 net.cpp:434] SoftmaxWithLoss1 <- Data2
I0227 00:12:24.433504 106988 net.cpp:408] SoftmaxWithLoss1 -> SoftmaxWithLoss1
…
