I0226 22:41:57.192391  8511 caffe.cpp:308] Use GPU with device ID 0
I0226 22:41:57.494287  8511 net.cpp:49] Initializing net from parameters: 
state {
  phase: TRAIN
}
layer {
  name: "Data1"
  type: "Data"
  top: "Data1"
  top: "Data2"
  data_param {
    source: "/home/dl/data/caffe/fake_data26752.lmdb"
    batch_size: 512
    backend: LMDB
  }
}
layer {
  name: "InnerProduct1"
  type: "InnerProduct"
  bottom: "Data1"
  top: "InnerProduct1"
  inner_product_param {
    num_output: 4096
  }
}
layer {
  name: "Sigmoid1"
  type: "Sigmoid"
  bottom: "InnerProduct1"
  top: "InnerProduct1"
}
layer {
  name: "InnerProduct2"
  type: "InnerProduct"
  bottom: "InnerProduct1"
  top: "InnerProduct2"
  inner_product_param {
    num_output: 4096
  }
}
layer {
  name: "Sigmoid2"
  type: "Sigmoid"
  bottom: "InnerProduct2"
  top: "InnerProduct2"
}
layer {
  name: "InnerProduct3"
  type: "InnerProduct"
  bottom: "InnerProduct2"
  top: "InnerProduct3"
  inner_product_param {
    num_output: 26752
  }
}
layer {
  name: "SoftmaxWithLoss1"
  type: "SoftmaxWithLoss"
  bottom: "InnerProduct3"
  bottom: "Data2"
  top: "SoftmaxWithLoss1"
}
I0226 22:41:57.494369  8511 layer_factory.hpp:77] Creating layer Data1
I0226 22:41:57.495342  8511 net.cpp:91] Creating Layer Data1
I0226 22:41:57.495359  8511 net.cpp:399] Data1 -> Data1
I0226 22:41:57.495383  8511 net.cpp:399] Data1 -> Data2
I0226 22:41:57.496045  8517 db_lmdb.cpp:35] Opened lmdb /home/dl/data/caffe/fake_data26752.lmdb
I0226 22:41:57.511827  8511 data_layer.cpp:41] output data size: 512,1,1,26752
I0226 22:41:57.593737  8511 net.cpp:141] Setting up Data1
I0226 22:41:57.593796  8511 net.cpp:148] Top shape: 512 1 1 26752 (13697024)
I0226 22:41:57.593806  8511 net.cpp:148] Top shape: 512 (512)
I0226 22:41:57.593812  8511 net.cpp:156] Memory required for data: 54790144
I0226 22:41:57.593825  8511 layer_factory.hpp:77] Creating layer InnerProduct1
I0226 22:41:57.593842  8511 net.cpp:91] Creating Layer InnerProduct1
I0226 22:41:57.593850  8511 net.cpp:425] InnerProduct1 <- Data1
I0226 22:41:57.593865  8511 net.cpp:399] InnerProduct1 -> InnerProduct1
I0226 22:41:57.775807  8511 net.cpp:141] Setting up InnerProduct1
I0226 22:41:57.775849  8511 net.cpp:148] Top shape: 512 4096 (2097152)
I0226 22:41:57.775857  8511 net.cpp:156] Memory required for data: 63178752
I0226 22:41:57.775879  8511 layer_factory.hpp:77] Creating layer Sigmoid1
I0226 22:41:57.775895  8511 net.cpp:91] Creating Layer Sigmoid1
I0226 22:41:57.775904  8511 net.cpp:425] Sigmoid1 <- InnerProduct1
I0226 22:41:57.775913  8511 net.cpp:386] Sigmoid1 -> InnerProduct1 (in-place)
I0226 22:41:57.997961  8511 net.cpp:141] Setting up Sigmoid1
I0226 22:41:57.998004  8511 net.cpp:148] Top shape: 512 4096 (2097152)
I0226 22:41:57.998013  8511 net.cpp:156] Memory required for data: 71567360
I0226 22:41:57.998021  8511 layer_factory.hpp:77] Creating layer InnerProduct2
I0226 22:41:57.998035  8511 net.cpp:91] Creating Layer InnerProduct2
I0226 22:41:57.998042  8511 net.cpp:425] InnerProduct2 <- InnerProduct1
I0226 22:41:57.998054  8511 net.cpp:399] InnerProduct2 -> InnerProduct2
I0226 22:41:58.024998  8511 net.cpp:141] Setting up InnerProduct2
I0226 22:41:58.025048  8511 net.cpp:148] Top shape: 512 4096 (2097152)
I0226 22:41:58.025056  8511 net.cpp:156] Memory required for data: 79955968
I0226 22:41:58.025074  8511 layer_factory.hpp:77] Creating layer Sigmoid2
I0226 22:41:58.025089  8511 net.cpp:91] Creating Layer Sigmoid2
I0226 22:41:58.025096  8511 net.cpp:425] Sigmoid2 <- InnerProduct2
I0226 22:41:58.025105  8511 net.cpp:386] Sigmoid2 -> InnerProduct2 (in-place)
I0226 22:41:58.025701  8511 net.cpp:141] Setting up Sigmoid2
I0226 22:41:58.025717  8511 net.cpp:148] Top shape: 512 4096 (2097152)
I0226 22:41:58.025724  8511 net.cpp:156] Memory required for data: 88344576
I0226 22:41:58.025730  8511 layer_factory.hpp:77] Creating layer InnerProduct3
I0226 22:41:58.025740  8511 net.cpp:91] Creating Layer InnerProduct3
I0226 22:41:58.025748  8511 net.cpp:425] InnerProduct3 <- InnerProduct2
I0226 22:41:58.025755  8511 net.cpp:399] InnerProduct3 -> InnerProduct3
I0226 22:41:58.199903  8511 net.cpp:141] Setting up InnerProduct3
I0226 22:41:58.199967  8511 net.cpp:148] Top shape: 512 26752 (13697024)
I0226 22:41:58.199975  8511 net.cpp:156] Memory required for data: 143132672
I0226 22:41:58.199992  8511 layer_factory.hpp:77] Creating layer SoftmaxWithLoss1
I0226 22:41:58.200006  8511 net.cpp:91] Creating Layer SoftmaxWithLoss1
I0226 22:41:58.200013  8511 net.cpp:425] SoftmaxWithLoss1 <- InnerProduct3
I0226 22:41:58.200021  8511 net.cpp:425] SoftmaxWithLoss1 <- Data2
I0226 22:41:58.200032  8511 net.cpp:399] SoftmaxWithLoss1 -> SoftmaxWithLoss1
…
