…
I0227 11:22:54.719138 13839 common.cpp:128] Start to init xgboost ......
I0227 11:22:54.756745 13839 common.cpp:163] Init xgboost finished!
I0227 11:22:54.758602 13839 common.cpp:219] Set device properties
I0227 11:22:54.758625 13839 common.cpp:229] Set device properties finished
I0227 11:22:54.760710 13839 net.cpp:49] Initializing net from parameters: 
state {
  phase: TRAIN
}
layer {
  name: "Data1"
  type: "Data"
  top: "Data1"
  top: "Data2"
  data_param {
    source: "/home/dl/data/caffe/fake_data26752.lmdb"
    batch_size: 128
    backend: LMDB
  }
}
layer {
  name: "InnerProduct1"
  type: "InnerProduct"
  bottom: "Data1"
  top: "InnerProduct1"
  inner_product_param {
    num_output: 4096
  }
}
layer {
  name: "Sigmoid1"
  type: "Sigmoid"
  bottom: "InnerProduct1"
  top: "InnerProduct1"
}
layer {
  name: "InnerProduct2"
  type: "InnerProduct"
  bottom: "InnerProduct1"
  top: "InnerProduct2"
  inner_product_param {
    num_output: 4096
  }
}
layer {
  name: "Sigmoid2"
  type: "Sigmoid"
  bottom: "InnerProduct2"
  top: "InnerProduct2"
}
layer {
  name: "InnerProduct3"
  type: "InnerProduct"
  bottom: "InnerProduct2"
  top: "InnerProduct3"
  inner_product_param {
    num_output: 26752
  }
}
layer {
  name: "SoftmaxWithLoss1"
  type: "SoftmaxWithLoss"
  bottom: "InnerProduct3"
  bottom: "Data2"
  top: "SoftmaxWithLoss1"
}
I0227 11:22:54.760793 13839 layer_factory.hpp:77] Creating layer Data1
I0227 11:22:54.761317 13839 net.cpp:91] Creating Layer Data1
I0227 11:22:54.761339 13839 net.cpp:399] Data1 -> Data1
I0227 11:22:54.761396 13839 net.cpp:399] Data1 -> Data2
I0227 11:22:54.762231 13855 common.cpp:128] Start to init xgboost ......
I0227 11:22:54.764273 13855 common.cpp:163] Init xgboost finished!
I0227 11:22:54.764374 13855 db_lmdb.cpp:35] Opened lmdb /home/dl/data/caffe/fake_data26752.lmdb
I0227 11:22:54.779901 13839 data_layer.cpp:41] output data size: 128,1,1,26752
I0227 11:22:54.804339 13839 net.cpp:141] Setting up Data1
I0227 11:22:54.804414 13839 net.cpp:148] Top shape: 128 1 1 26752 (3424256)
I0227 11:22:54.804425 13839 net.cpp:148] Top shape: 128 (128)
I0227 11:22:54.804432 13839 net.cpp:156] Memory required for data: 13697536
I0227 11:22:54.804446 13839 layer_factory.hpp:77] Creating layer InnerProduct1
I0227 11:22:54.804487 13839 net.cpp:91] Creating Layer InnerProduct1
I0227 11:22:54.804499 13839 net.cpp:425] InnerProduct1 <- Data1
I0227 11:22:54.804518 13839 net.cpp:399] InnerProduct1 -> InnerProduct1
I0227 11:22:54.907421 13863 common.cpp:128] Start to init xgboost ......
I0227 11:22:54.941148 13863 common.cpp:163] Init xgboost finished!
I0227 11:22:54.996264 13839 net.cpp:141] Setting up InnerProduct1
I0227 11:22:54.996315 13839 net.cpp:148] Top shape: 128 4096 (524288)
I0227 11:22:54.996321 13839 net.cpp:156] Memory required for data: 15794688
I0227 11:22:54.996345 13839 layer_factory.hpp:77] Creating layer Sigmoid1
I0227 11:22:54.996361 13839 net.cpp:91] Creating Layer Sigmoid1
I0227 11:22:54.996367 13839 net.cpp:425] Sigmoid1 <- InnerProduct1
I0227 11:22:54.996378 13839 net.cpp:386] Sigmoid1 -> InnerProduct1 (in-place)
I0227 11:22:55.175850 13839 net.cpp:141] Setting up Sigmoid1
I0227 11:22:55.175889 13839 net.cpp:148] Top shape: 128 4096 (524288)
I0227 11:22:55.175896 13839 net.cpp:156] Memory required for data: 17891840
I0227 11:22:55.175905 13839 layer_factory.hpp:77] Creating layer InnerProduct2
I0227 11:22:55.175920 13839 net.cpp:91] Creating Layer InnerProduct2
I0227 11:22:55.175927 13839 net.cpp:425] InnerProduct2 <- InnerProduct1
I0227 11:22:55.175938 13839 net.cpp:399] InnerProduct2 -> InnerProduct2
I0227 11:22:55.201521 13839 net.cpp:141] Setting up InnerProduct2
I0227 11:22:55.201568 13839 net.cpp:148] Top shape: 128 4096 (524288)
I0227 11:22:55.201576 13839 net.cpp:156] Memory required for data: 19988992
I0227 11:22:55.201594 13839 layer_factory.hpp:77] Creating layer Sigmoid2
I0227 11:22:55.201609 13839 net.cpp:91] Creating Layer Sigmoid2
I0227 11:22:55.201617 13839 net.cpp:425] Sigmoid2 <- InnerProduct2
I0227 11:22:55.201625 13839 net.cpp:386] Sigmoid2 -> InnerProduct2 (in-place)
I0227 11:22:55.201817 13839 net.cpp:141] Setting up Sigmoid2
I0227 11:22:55.201841 13839 net.cpp:148] Top shape: 128 4096 (524288)
I0227 11:22:55.201848 13839 net.cpp:156] Memory required for data: 22086144
I0227 11:22:55.201854 13839 layer_factory.hpp:77] Creating layer InnerProduct3
I0227 11:22:55.201864 13839 net.cpp:91] Creating Layer InnerProduct3
I0227 11:22:55.201870 13839 net.cpp:425] InnerProduct3 <- InnerProduct2
I0227 11:22:55.201879 13839 net.cpp:399] InnerProduct3 -> InnerProduct3
I0227 11:22:55.367121 13839 net.cpp:141] Setting up InnerProduct3
I0227 11:22:55.367167 13839 net.cpp:148] Top shape: 128 26752 (3424256)
I0227 11:22:55.367175 13839 net.cpp:156] Memory required for data: 35783168
I0227 11:22:55.367192 13839 layer_factory.hpp:77] Creating layer SoftmaxWithLoss1
I0227 11:22:55.367207 13839 net.cpp:91] Creating Layer SoftmaxWithLoss1
I0227 11:22:55.367213 13839 net.cpp:425] SoftmaxWithLoss1 <- InnerProduct3
I0227 11:22:55.367223 13839 net.cpp:425] SoftmaxWithLoss1 <- Data2
I0227 11:22:55.367233 13839 net.cpp:399] SoftmaxWithLoss1 -> SoftmaxWithLoss1
…
