…
I0227 11:23:11.348743 13996 common.cpp:128] Start to init xgboost ......
I0227 11:23:11.361891 13996 common.cpp:163] Init xgboost finished!
I0227 11:23:11.363529 13996 common.cpp:219] Set device properties
I0227 11:23:11.363543 13996 common.cpp:229] Set device properties finished
I0227 11:23:11.364850 13996 net.cpp:49] Initializing net from parameters: 
state {
  phase: TRAIN
}
layer {
  name: "Data1"
  type: "Data"
  top: "Data1"
  top: "Data2"
  data_param {
    source: "/home/dl/data/caffe/fake_data26752.lmdb"
    batch_size: 2048
    backend: LMDB
  }
}
layer {
  name: "InnerProduct1"
  type: "InnerProduct"
  bottom: "Data1"
  top: "InnerProduct1"
  inner_product_param {
    num_output: 4096
  }
}
layer {
  name: "Sigmoid1"
  type: "Sigmoid"
  bottom: "InnerProduct1"
  top: "InnerProduct1"
}
layer {
  name: "InnerProduct2"
  type: "InnerProduct"
  bottom: "InnerProduct1"
  top: "InnerProduct2"
  inner_product_param {
    num_output: 4096
  }
}
layer {
  name: "Sigmoid2"
  type: "Sigmoid"
  bottom: "InnerProduct2"
  top: "InnerProduct2"
}
layer {
  name: "InnerProduct3"
  type: "InnerProduct"
  bottom: "InnerProduct2"
  top: "InnerProduct3"
  inner_product_param {
    num_output: 26752
  }
}
layer {
  name: "SoftmaxWithLoss1"
  type: "SoftmaxWithLoss"
  bottom: "InnerProduct3"
  bottom: "Data2"
  top: "SoftmaxWithLoss1"
}
I0227 11:23:11.364907 13996 layer_factory.hpp:77] Creating layer Data1
I0227 11:23:11.366053 13996 net.cpp:91] Creating Layer Data1
I0227 11:23:11.366070 13996 net.cpp:399] Data1 -> Data1
I0227 11:23:11.366093 13996 net.cpp:399] Data1 -> Data2
I0227 11:23:11.366669 14009 common.cpp:128] Start to init xgboost ......
I0227 11:23:11.367740 14009 common.cpp:163] Init xgboost finished!
I0227 11:23:11.367843 14009 db_lmdb.cpp:35] Opened lmdb /home/dl/data/caffe/fake_data26752.lmdb
I0227 11:23:11.376561 13996 data_layer.cpp:41] output data size: 2048,1,1,26752
I0227 11:23:11.733994 13996 net.cpp:141] Setting up Data1
I0227 11:23:11.734051 13996 net.cpp:148] Top shape: 2048 1 1 26752 (54788096)
I0227 11:23:11.734061 13996 net.cpp:148] Top shape: 2048 (2048)
I0227 11:23:11.734066 13996 net.cpp:156] Memory required for data: 219160576
I0227 11:23:11.734079 13996 layer_factory.hpp:77] Creating layer InnerProduct1
I0227 11:23:11.734096 13996 net.cpp:91] Creating Layer InnerProduct1
I0227 11:23:11.734104 13996 net.cpp:425] InnerProduct1 <- Data1
I0227 11:23:11.734120 13996 net.cpp:399] InnerProduct1 -> InnerProduct1
I0227 11:23:11.830322 14017 common.cpp:128] Start to init xgboost ......
I0227 11:23:11.831408 14017 common.cpp:163] Init xgboost finished!
I0227 11:23:11.909695 13996 net.cpp:141] Setting up InnerProduct1
I0227 11:23:11.909745 13996 net.cpp:148] Top shape: 2048 4096 (8388608)
I0227 11:23:11.909754 13996 net.cpp:156] Memory required for data: 252715008
I0227 11:23:11.909776 13996 layer_factory.hpp:77] Creating layer Sigmoid1
I0227 11:23:11.909793 13996 net.cpp:91] Creating Layer Sigmoid1
I0227 11:23:11.909801 13996 net.cpp:425] Sigmoid1 <- InnerProduct1
I0227 11:23:11.909811 13996 net.cpp:386] Sigmoid1 -> InnerProduct1 (in-place)
I0227 11:23:12.187041 13996 net.cpp:141] Setting up Sigmoid1
I0227 11:23:12.187083 13996 net.cpp:148] Top shape: 2048 4096 (8388608)
I0227 11:23:12.187090 13996 net.cpp:156] Memory required for data: 286269440
I0227 11:23:12.187100 13996 layer_factory.hpp:77] Creating layer InnerProduct2
I0227 11:23:12.187115 13996 net.cpp:91] Creating Layer InnerProduct2
I0227 11:23:12.187122 13996 net.cpp:425] InnerProduct2 <- InnerProduct1
I0227 11:23:12.187134 13996 net.cpp:399] InnerProduct2 -> InnerProduct2
I0227 11:23:12.213523 13996 net.cpp:141] Setting up InnerProduct2
I0227 11:23:12.213577 13996 net.cpp:148] Top shape: 2048 4096 (8388608)
I0227 11:23:12.213588 13996 net.cpp:156] Memory required for data: 319823872
I0227 11:23:12.213608 13996 layer_factory.hpp:77] Creating layer Sigmoid2
I0227 11:23:12.213625 13996 net.cpp:91] Creating Layer Sigmoid2
I0227 11:23:12.213635 13996 net.cpp:425] Sigmoid2 <- InnerProduct2
I0227 11:23:12.213646 13996 net.cpp:386] Sigmoid2 -> InnerProduct2 (in-place)
I0227 11:23:12.213863 13996 net.cpp:141] Setting up Sigmoid2
I0227 11:23:12.213879 13996 net.cpp:148] Top shape: 2048 4096 (8388608)
I0227 11:23:12.213886 13996 net.cpp:156] Memory required for data: 353378304
I0227 11:23:12.213893 13996 layer_factory.hpp:77] Creating layer InnerProduct3
I0227 11:23:12.213904 13996 net.cpp:91] Creating Layer InnerProduct3
I0227 11:23:12.213912 13996 net.cpp:425] InnerProduct3 <- InnerProduct2
I0227 11:23:12.213920 13996 net.cpp:399] InnerProduct3 -> InnerProduct3
I0227 11:23:12.387552 13996 net.cpp:141] Setting up InnerProduct3
I0227 11:23:12.387593 13996 net.cpp:148] Top shape: 2048 26752 (54788096)
I0227 11:23:12.387600 13996 net.cpp:156] Memory required for data: 572530688
I0227 11:23:12.387619 13996 layer_factory.hpp:77] Creating layer SoftmaxWithLoss1
I0227 11:23:12.387632 13996 net.cpp:91] Creating Layer SoftmaxWithLoss1
I0227 11:23:12.387640 13996 net.cpp:425] SoftmaxWithLoss1 <- InnerProduct3
I0227 11:23:12.387650 13996 net.cpp:425] SoftmaxWithLoss1 <- Data2
I0227 11:23:12.387660 13996 net.cpp:399] SoftmaxWithLoss1 -> SoftmaxWithLoss1
…
