…
I0227 11:23:04.587733 13951 common.cpp:128] Start to init xgboost ......
I0227 11:23:04.596356 13951 common.cpp:163] Init xgboost finished!
I0227 11:23:04.598024 13951 common.cpp:219] Set device properties
I0227 11:23:04.598039 13951 common.cpp:229] Set device properties finished
I0227 11:23:04.599349 13951 net.cpp:49] Initializing net from parameters: 
state {
  phase: TRAIN
}
layer {
  name: "Data1"
  type: "Data"
  top: "Data1"
  top: "Data2"
  data_param {
    source: "/home/dl/data/caffe/fake_data26752.lmdb"
    batch_size: 1024
    backend: LMDB
  }
}
layer {
  name: "InnerProduct1"
  type: "InnerProduct"
  bottom: "Data1"
  top: "InnerProduct1"
  inner_product_param {
    num_output: 4096
  }
}
layer {
  name: "Sigmoid1"
  type: "Sigmoid"
  bottom: "InnerProduct1"
  top: "InnerProduct1"
}
layer {
  name: "InnerProduct2"
  type: "InnerProduct"
  bottom: "InnerProduct1"
  top: "InnerProduct2"
  inner_product_param {
    num_output: 4096
  }
}
layer {
  name: "Sigmoid2"
  type: "Sigmoid"
  bottom: "InnerProduct2"
  top: "InnerProduct2"
}
layer {
  name: "InnerProduct3"
  type: "InnerProduct"
  bottom: "InnerProduct2"
  top: "InnerProduct3"
  inner_product_param {
    num_output: 26752
  }
}
layer {
  name: "SoftmaxWithLoss1"
  type: "SoftmaxWithLoss"
  bottom: "InnerProduct3"
  bottom: "Data2"
  top: "SoftmaxWithLoss1"
}
I0227 11:23:04.599407 13951 layer_factory.hpp:77] Creating layer Data1
I0227 11:23:04.601491 13951 net.cpp:91] Creating Layer Data1
I0227 11:23:04.601506 13951 net.cpp:399] Data1 -> Data1
I0227 11:23:04.601585 13951 net.cpp:399] Data1 -> Data2
I0227 11:23:04.602562 13964 common.cpp:128] Start to init xgboost ......
I0227 11:23:04.603806 13964 common.cpp:163] Init xgboost finished!
I0227 11:23:04.603925 13964 db_lmdb.cpp:35] Opened lmdb /home/dl/data/caffe/fake_data26752.lmdb
I0227 11:23:04.613250 13951 data_layer.cpp:41] output data size: 1024,1,1,26752
I0227 11:23:04.771749 13951 net.cpp:141] Setting up Data1
I0227 11:23:04.771809 13951 net.cpp:148] Top shape: 1024 1 1 26752 (27394048)
I0227 11:23:04.771819 13951 net.cpp:148] Top shape: 1024 (1024)
I0227 11:23:04.771826 13951 net.cpp:156] Memory required for data: 109580288
I0227 11:23:04.771838 13951 layer_factory.hpp:77] Creating layer InnerProduct1
I0227 11:23:04.771853 13951 net.cpp:91] Creating Layer InnerProduct1
I0227 11:23:04.771862 13951 net.cpp:425] InnerProduct1 <- Data1
I0227 11:23:04.771877 13951 net.cpp:399] InnerProduct1 -> InnerProduct1
I0227 11:23:04.856356 13974 common.cpp:128] Start to init xgboost ......
I0227 11:23:04.862874 13974 common.cpp:163] Init xgboost finished!
I0227 11:23:04.949306 13951 net.cpp:141] Setting up InnerProduct1
I0227 11:23:04.949359 13951 net.cpp:148] Top shape: 1024 4096 (4194304)
I0227 11:23:04.949373 13951 net.cpp:156] Memory required for data: 126357504
I0227 11:23:04.949415 13951 layer_factory.hpp:77] Creating layer Sigmoid1
I0227 11:23:04.949434 13951 net.cpp:91] Creating Layer Sigmoid1
I0227 11:23:04.949442 13951 net.cpp:425] Sigmoid1 <- InnerProduct1
I0227 11:23:04.949473 13951 net.cpp:386] Sigmoid1 -> InnerProduct1 (in-place)
I0227 11:23:05.235148 13951 net.cpp:141] Setting up Sigmoid1
I0227 11:23:05.235199 13951 net.cpp:148] Top shape: 1024 4096 (4194304)
I0227 11:23:05.235208 13951 net.cpp:156] Memory required for data: 143134720
I0227 11:23:05.235216 13951 layer_factory.hpp:77] Creating layer InnerProduct2
I0227 11:23:05.235231 13951 net.cpp:91] Creating Layer InnerProduct2
I0227 11:23:05.235239 13951 net.cpp:425] InnerProduct2 <- InnerProduct1
I0227 11:23:05.235251 13951 net.cpp:399] InnerProduct2 -> InnerProduct2
I0227 11:23:05.262320 13951 net.cpp:141] Setting up InnerProduct2
I0227 11:23:05.262372 13951 net.cpp:148] Top shape: 1024 4096 (4194304)
I0227 11:23:05.262379 13951 net.cpp:156] Memory required for data: 159911936
I0227 11:23:05.262409 13951 layer_factory.hpp:77] Creating layer Sigmoid2
I0227 11:23:05.262424 13951 net.cpp:91] Creating Layer Sigmoid2
I0227 11:23:05.262432 13951 net.cpp:425] Sigmoid2 <- InnerProduct2
I0227 11:23:05.262442 13951 net.cpp:386] Sigmoid2 -> InnerProduct2 (in-place)
I0227 11:23:05.262660 13951 net.cpp:141] Setting up Sigmoid2
I0227 11:23:05.262673 13951 net.cpp:148] Top shape: 1024 4096 (4194304)
I0227 11:23:05.262681 13951 net.cpp:156] Memory required for data: 176689152
I0227 11:23:05.262686 13951 layer_factory.hpp:77] Creating layer InnerProduct3
I0227 11:23:05.262697 13951 net.cpp:91] Creating Layer InnerProduct3
I0227 11:23:05.262704 13951 net.cpp:425] InnerProduct3 <- InnerProduct2
I0227 11:23:05.262712 13951 net.cpp:399] InnerProduct3 -> InnerProduct3
I0227 11:23:05.431289 13951 net.cpp:141] Setting up InnerProduct3
I0227 11:23:05.431336 13951 net.cpp:148] Top shape: 1024 26752 (27394048)
I0227 11:23:05.431344 13951 net.cpp:156] Memory required for data: 286265344
I0227 11:23:05.431361 13951 layer_factory.hpp:77] Creating layer SoftmaxWithLoss1
I0227 11:23:05.431375 13951 net.cpp:91] Creating Layer SoftmaxWithLoss1
I0227 11:23:05.431382 13951 net.cpp:425] SoftmaxWithLoss1 <- InnerProduct3
I0227 11:23:05.431391 13951 net.cpp:425] SoftmaxWithLoss1 <- Data2
I0227 11:23:05.431401 13951 net.cpp:399] SoftmaxWithLoss1 -> SoftmaxWithLoss1
…
