…
I0227 11:23:00.275161 13912 common.cpp:128] Start to init xgboost ......
I0227 11:23:00.307247 13912 common.cpp:163] Init xgboost finished!
I0227 11:23:00.308936 13912 common.cpp:219] Set device properties
I0227 11:23:00.308954 13912 common.cpp:229] Set device properties finished
I0227 11:23:00.310461 13912 net.cpp:49] Initializing net from parameters: 
state {
  phase: TRAIN
}
layer {
  name: "Data1"
  type: "Data"
  top: "Data1"
  top: "Data2"
  data_param {
    source: "/home/dl/data/caffe/fake_data26752.lmdb"
    batch_size: 512
    backend: LMDB
  }
}
layer {
  name: "InnerProduct1"
  type: "InnerProduct"
  bottom: "Data1"
  top: "InnerProduct1"
  inner_product_param {
    num_output: 4096
  }
}
layer {
  name: "Sigmoid1"
  type: "Sigmoid"
  bottom: "InnerProduct1"
  top: "InnerProduct1"
}
layer {
  name: "InnerProduct2"
  type: "InnerProduct"
  bottom: "InnerProduct1"
  top: "InnerProduct2"
  inner_product_param {
    num_output: 4096
  }
}
layer {
  name: "Sigmoid2"
  type: "Sigmoid"
  bottom: "InnerProduct2"
  top: "InnerProduct2"
}
layer {
  name: "InnerProduct3"
  type: "InnerProduct"
  bottom: "InnerProduct2"
  top: "InnerProduct3"
  inner_product_param {
    num_output: 26752
  }
}
layer {
  name: "SoftmaxWithLoss1"
  type: "SoftmaxWithLoss"
  bottom: "InnerProduct3"
  bottom: "Data2"
  top: "SoftmaxWithLoss1"
}
I0227 11:23:00.310524 13912 layer_factory.hpp:77] Creating layer Data1
I0227 11:23:00.311053 13912 net.cpp:91] Creating Layer Data1
I0227 11:23:00.311069 13912 net.cpp:399] Data1 -> Data1
I0227 11:23:00.311095 13912 net.cpp:399] Data1 -> Data2
I0227 11:23:00.311893 13925 common.cpp:128] Start to init xgboost ......
I0227 11:23:00.313282 13925 common.cpp:163] Init xgboost finished!
I0227 11:23:00.313410 13925 db_lmdb.cpp:35] Opened lmdb /home/dl/data/caffe/fake_data26752.lmdb
I0227 11:23:00.323004 13912 data_layer.cpp:41] output data size: 512,1,1,26752
I0227 11:23:00.403450 13912 net.cpp:141] Setting up Data1
I0227 11:23:00.403527 13912 net.cpp:148] Top shape: 512 1 1 26752 (13697024)
I0227 11:23:00.403550 13912 net.cpp:148] Top shape: 512 (512)
I0227 11:23:00.403558 13912 net.cpp:156] Memory required for data: 54790144
I0227 11:23:00.403570 13912 layer_factory.hpp:77] Creating layer InnerProduct1
I0227 11:23:00.403590 13912 net.cpp:91] Creating Layer InnerProduct1
I0227 11:23:00.403610 13912 net.cpp:425] InnerProduct1 <- Data1
I0227 11:23:00.403626 13912 net.cpp:399] InnerProduct1 -> InnerProduct1
I0227 11:23:00.497443 13933 common.cpp:128] Start to init xgboost ......
I0227 11:23:00.576586 13912 net.cpp:141] Setting up InnerProduct1
I0227 11:23:00.576632 13912 net.cpp:148] Top shape: 512 4096 (2097152)
I0227 11:23:00.576639 13912 net.cpp:156] Memory required for data: 63178752
I0227 11:23:00.576661 13912 layer_factory.hpp:77] Creating layer Sigmoid1
I0227 11:23:00.576678 13912 net.cpp:91] Creating Layer Sigmoid1
I0227 11:23:00.576685 13912 net.cpp:425] Sigmoid1 <- InnerProduct1
I0227 11:23:00.576695 13912 net.cpp:386] Sigmoid1 -> InnerProduct1 (in-place)
I0227 11:23:00.579396 13933 common.cpp:163] Init xgboost finished!
I0227 11:23:00.835942 13912 net.cpp:141] Setting up Sigmoid1
I0227 11:23:00.835983 13912 net.cpp:148] Top shape: 512 4096 (2097152)
I0227 11:23:00.835990 13912 net.cpp:156] Memory required for data: 71567360
I0227 11:23:00.836000 13912 layer_factory.hpp:77] Creating layer InnerProduct2
I0227 11:23:00.836014 13912 net.cpp:91] Creating Layer InnerProduct2
I0227 11:23:00.836022 13912 net.cpp:425] InnerProduct2 <- InnerProduct1
I0227 11:23:00.836033 13912 net.cpp:399] InnerProduct2 -> InnerProduct2
I0227 11:23:00.861769 13912 net.cpp:141] Setting up InnerProduct2
I0227 11:23:00.861819 13912 net.cpp:148] Top shape: 512 4096 (2097152)
I0227 11:23:00.861825 13912 net.cpp:156] Memory required for data: 79955968
I0227 11:23:00.861843 13912 layer_factory.hpp:77] Creating layer Sigmoid2
I0227 11:23:00.861857 13912 net.cpp:91] Creating Layer Sigmoid2
I0227 11:23:00.861865 13912 net.cpp:425] Sigmoid2 <- InnerProduct2
I0227 11:23:00.861874 13912 net.cpp:386] Sigmoid2 -> InnerProduct2 (in-place)
I0227 11:23:00.862069 13912 net.cpp:141] Setting up Sigmoid2
I0227 11:23:00.862092 13912 net.cpp:148] Top shape: 512 4096 (2097152)
I0227 11:23:00.862099 13912 net.cpp:156] Memory required for data: 88344576
I0227 11:23:00.862107 13912 layer_factory.hpp:77] Creating layer InnerProduct3
I0227 11:23:00.862116 13912 net.cpp:91] Creating Layer InnerProduct3
I0227 11:23:00.862123 13912 net.cpp:425] InnerProduct3 <- InnerProduct2
I0227 11:23:00.862131 13912 net.cpp:399] InnerProduct3 -> InnerProduct3
I0227 11:23:01.026171 13912 net.cpp:141] Setting up InnerProduct3
I0227 11:23:01.026217 13912 net.cpp:148] Top shape: 512 26752 (13697024)
I0227 11:23:01.026224 13912 net.cpp:156] Memory required for data: 143132672
I0227 11:23:01.026243 13912 layer_factory.hpp:77] Creating layer SoftmaxWithLoss1
I0227 11:23:01.026257 13912 net.cpp:91] Creating Layer SoftmaxWithLoss1
I0227 11:23:01.026264 13912 net.cpp:425] SoftmaxWithLoss1 <- InnerProduct3
I0227 11:23:01.026273 13912 net.cpp:425] SoftmaxWithLoss1 <- Data2
I0227 11:23:01.026284 13912 net.cpp:399] SoftmaxWithLoss1 -> SoftmaxWithLoss1
…
