…
I0227 23:15:19.245646 39397 common.cpp:128] Start to init xgboost ......
[23:15:19] include/dmlc/logging.h:235: [23:15:19] src/io/local_filesys.cc:154: Check failed: allow_null  LocalFileSystem: fail to open "/tmp/xgboostgemm2.model"
I0227 23:15:19.250069 39397 common.cpp:163] Init xgboost finished!
I0227 23:15:19.253284 39397 net.cpp:49] Initializing net from parameters: 
state {
  phase: TRAIN
}
layer {
  name: "Data1"
  type: "Data"
  top: "Data1"
  top: "Data2"
  data_param {
    source: "/home/comp/csshshi/data/caffe/fake_data26752.lmdb"
    batch_size: 1024
    backend: LMDB
  }
}
layer {
  name: "InnerProduct1"
  type: "InnerProduct"
  bottom: "Data1"
  top: "InnerProduct1"
  inner_product_param {
    num_output: 4096
  }
}
layer {
  name: "Sigmoid1"
  type: "Sigmoid"
  bottom: "InnerProduct1"
  top: "InnerProduct1"
}
layer {
  name: "InnerProduct2"
  type: "InnerProduct"
  bottom: "InnerProduct1"
  top: "InnerProduct2"
  inner_product_param {
    num_output: 4096
  }
}
layer {
  name: "Sigmoid2"
  type: "Sigmoid"
  bottom: "InnerProduct2"
  top: "InnerProduct2"
}
layer {
  name: "InnerProduct3"
  type: "InnerProduct"
  bottom: "InnerProduct2"
  top: "InnerProduct3"
  inner_product_param {
    num_output: 26752
  }
}
layer {
  name: "SoftmaxWithLoss1"
  type: "SoftmaxWithLoss"
  bottom: "InnerProduct3"
  bottom: "Data2"
  top: "SoftmaxWithLoss1"
}
I0227 23:15:19.253371 39397 layer_factory.hpp:77] Creating layer Data1
I0227 23:15:19.254695 39397 net.cpp:91] Creating Layer Data1
I0227 23:15:19.254716 39397 net.cpp:399] Data1 -> Data1
I0227 23:15:19.254827 39397 net.cpp:399] Data1 -> Data2
I0227 23:15:19.256314 39439 common.cpp:128] Start to init xgboost ......
[23:15:19] include/dmlc/logging.h:235: [23:15:19] src/io/local_filesys.cc:154: Check failed: allow_null  LocalFileSystem: fail to open "/tmp/xgboostgemm2.model"
I0227 23:15:19.259040 39439 common.cpp:163] Init xgboost finished!
I0227 23:15:19.260598 39439 db_lmdb.cpp:35] Opened lmdb /home/comp/csshshi/data/caffe/fake_data26752.lmdb
I0227 23:15:19.279568 39397 data_layer.cpp:41] output data size: 1024,1,1,26752
I0227 23:15:19.581876 39397 net.cpp:141] Setting up Data1
I0227 23:15:19.581996 39397 net.cpp:148] Top shape: 1024 1 1 26752 (27394048)
I0227 23:15:19.582006 39397 net.cpp:148] Top shape: 1024 (1024)
I0227 23:15:19.582010 39397 net.cpp:156] Memory required for data: 109580288
I0227 23:15:19.582028 39397 layer_factory.hpp:77] Creating layer InnerProduct1
I0227 23:15:19.582054 39397 net.cpp:91] Creating Layer InnerProduct1
I0227 23:15:19.582064 39397 net.cpp:425] InnerProduct1 <- Data1
I0227 23:15:19.582088 39397 net.cpp:399] InnerProduct1 -> InnerProduct1
I0227 23:15:19.796564 39479 common.cpp:128] Start to init xgboost ......
[23:15:19] include/dmlc/logging.h:235: [23:15:19] src/io/local_filesys.cc:154: Check failed: allow_null  LocalFileSystem: fail to open "/tmp/xgboostgemm2.model"
I0227 23:15:19.810428 39479 common.cpp:163] Init xgboost finished!
I0227 23:15:19.905864 39479 blocking_queue.cpp:50] Waiting for data
I0227 23:15:19.973546 39397 net.cpp:141] Setting up InnerProduct1
I0227 23:15:19.973603 39397 net.cpp:148] Top shape: 1024 4096 (4194304)
I0227 23:15:19.973609 39397 net.cpp:156] Memory required for data: 126357504
I0227 23:15:19.973676 39397 layer_factory.hpp:77] Creating layer Sigmoid1
I0227 23:15:19.973737 39397 net.cpp:91] Creating Layer Sigmoid1
I0227 23:15:19.973744 39397 net.cpp:425] Sigmoid1 <- InnerProduct1
I0227 23:15:19.973754 39397 net.cpp:386] Sigmoid1 -> InnerProduct1 (in-place)
I0227 23:15:20.275506 39479 blocking_queue.cpp:50] Waiting for data
I0227 23:15:20.284608 39397 net.cpp:141] Setting up Sigmoid1
I0227 23:15:20.284662 39397 net.cpp:148] Top shape: 1024 4096 (4194304)
I0227 23:15:20.284667 39397 net.cpp:156] Memory required for data: 143134720
I0227 23:15:20.284683 39397 layer_factory.hpp:77] Creating layer InnerProduct2
I0227 23:15:20.284715 39397 net.cpp:91] Creating Layer InnerProduct2
I0227 23:15:20.284723 39397 net.cpp:425] InnerProduct2 <- InnerProduct1
I0227 23:15:20.284741 39397 net.cpp:399] InnerProduct2 -> InnerProduct2
I0227 23:15:20.343528 39397 net.cpp:141] Setting up InnerProduct2
I0227 23:15:20.343588 39397 net.cpp:148] Top shape: 1024 4096 (4194304)
I0227 23:15:20.343595 39397 net.cpp:156] Memory required for data: 159911936
I0227 23:15:20.343621 39397 layer_factory.hpp:77] Creating layer Sigmoid2
I0227 23:15:20.343639 39397 net.cpp:91] Creating Layer Sigmoid2
I0227 23:15:20.343647 39397 net.cpp:425] Sigmoid2 <- InnerProduct2
I0227 23:15:20.343688 39397 net.cpp:386] Sigmoid2 -> InnerProduct2 (in-place)
I0227 23:15:20.344013 39397 net.cpp:141] Setting up Sigmoid2
I0227 23:15:20.344025 39397 net.cpp:148] Top shape: 1024 4096 (4194304)
I0227 23:15:20.344029 39397 net.cpp:156] Memory required for data: 176689152
I0227 23:15:20.344034 39397 layer_factory.hpp:77] Creating layer InnerProduct3
I0227 23:15:20.344046 39397 net.cpp:91] Creating Layer InnerProduct3
I0227 23:15:20.344050 39397 net.cpp:425] InnerProduct3 <- InnerProduct2
I0227 23:15:20.344058 39397 net.cpp:399] InnerProduct3 -> InnerProduct3
I0227 23:15:20.725713 39397 net.cpp:141] Setting up InnerProduct3
I0227 23:15:20.725769 39397 net.cpp:148] Top shape: 1024 26752 (27394048)
I0227 23:15:20.725775 39397 net.cpp:156] Memory required for data: 286265344
I0227 23:15:20.725797 39397 layer_factory.hpp:77] Creating layer SoftmaxWithLoss1
I0227 23:15:20.725821 39397 net.cpp:91] Creating Layer SoftmaxWithLoss1
I0227 23:15:20.725827 39397 net.cpp:425] SoftmaxWithLoss1 <- InnerProduct3
I0227 23:15:20.725836 39397 net.cpp:425] SoftmaxWithLoss1 <- Data2
I0227 23:15:20.725847 39397 net.cpp:399] SoftmaxWithLoss1 -> SoftmaxWithLoss1
…
