…
I0227 23:14:41.743154 38870 common.cpp:128] Start to init xgboost ......
[23:14:41] include/dmlc/logging.h:235: [23:14:41] src/io/local_filesys.cc:154: Check failed: allow_null  LocalFileSystem: fail to open "/tmp/xgboostgemm2.model"
I0227 23:14:41.756827 38870 common.cpp:163] Init xgboost finished!
I0227 23:14:41.766729 38870 net.cpp:49] Initializing net from parameters: 
state {
  phase: TRAIN
}
layer {
  name: "Data1"
  type: "Data"
  top: "Data1"
  top: "Data2"
  data_param {
    source: "/home/comp/csshshi/data/caffe/fake_data26752.lmdb"
    batch_size: 256
    backend: LMDB
  }
}
layer {
  name: "InnerProduct1"
  type: "InnerProduct"
  bottom: "Data1"
  top: "InnerProduct1"
  inner_product_param {
    num_output: 4096
  }
}
layer {
  name: "Sigmoid1"
  type: "Sigmoid"
  bottom: "InnerProduct1"
  top: "InnerProduct1"
}
layer {
  name: "InnerProduct2"
  type: "InnerProduct"
  bottom: "InnerProduct1"
  top: "InnerProduct2"
  inner_product_param {
    num_output: 4096
  }
}
layer {
  name: "Sigmoid2"
  type: "Sigmoid"
  bottom: "InnerProduct2"
  top: "InnerProduct2"
}
layer {
  name: "InnerProduct3"
  type: "InnerProduct"
  bottom: "InnerProduct2"
  top: "InnerProduct3"
  inner_product_param {
    num_output: 26752
  }
}
layer {
  name: "SoftmaxWithLoss1"
  type: "SoftmaxWithLoss"
  bottom: "InnerProduct3"
  bottom: "Data2"
  top: "SoftmaxWithLoss1"
}
I0227 23:14:41.766835 38870 layer_factory.hpp:77] Creating layer Data1
I0227 23:14:41.768167 38870 net.cpp:91] Creating Layer Data1
I0227 23:14:41.768245 38870 net.cpp:399] Data1 -> Data1
I0227 23:14:41.768296 38870 net.cpp:399] Data1 -> Data2
I0227 23:14:41.769856 38912 common.cpp:128] Start to init xgboost ......
[23:14:41] include/dmlc/logging.h:235: [23:14:41] src/io/local_filesys.cc:154: Check failed: allow_null  LocalFileSystem: fail to open "/tmp/xgboostgemm2.model"
I0227 23:14:41.772617 38912 common.cpp:163] Init xgboost finished!
I0227 23:14:41.774221 38912 db_lmdb.cpp:35] Opened lmdb /home/comp/csshshi/data/caffe/fake_data26752.lmdb
I0227 23:14:41.788622 38870 data_layer.cpp:41] output data size: 256,1,1,26752
I0227 23:14:41.866142 38870 net.cpp:141] Setting up Data1
I0227 23:14:41.866253 38870 net.cpp:148] Top shape: 256 1 1 26752 (6848512)
I0227 23:14:41.866263 38870 net.cpp:148] Top shape: 256 (256)
I0227 23:14:41.866267 38870 net.cpp:156] Memory required for data: 27395072
I0227 23:14:41.866284 38870 layer_factory.hpp:77] Creating layer InnerProduct1
I0227 23:14:41.866312 38870 net.cpp:91] Creating Layer InnerProduct1
I0227 23:14:41.866323 38870 net.cpp:425] InnerProduct1 <- Data1
I0227 23:14:41.866346 38870 net.cpp:399] InnerProduct1 -> InnerProduct1
I0227 23:14:42.103103 38952 common.cpp:128] Start to init xgboost ......
[23:14:42] include/dmlc/logging.h:235: [23:14:42] src/io/local_filesys.cc:154: Check failed: allow_null  LocalFileSystem: fail to open "/tmp/xgboostgemm2.model"
I0227 23:14:42.107022 38952 common.cpp:163] Init xgboost finished!
I0227 23:14:42.145588 38952 blocking_queue.cpp:50] Waiting for data
I0227 23:14:42.266315 38870 net.cpp:141] Setting up InnerProduct1
I0227 23:14:42.266376 38870 net.cpp:148] Top shape: 256 4096 (1048576)
I0227 23:14:42.266382 38870 net.cpp:156] Memory required for data: 31589376
I0227 23:14:42.266438 38870 layer_factory.hpp:77] Creating layer Sigmoid1
I0227 23:14:42.266466 38870 net.cpp:91] Creating Layer Sigmoid1
I0227 23:14:42.266474 38870 net.cpp:425] Sigmoid1 <- InnerProduct1
I0227 23:14:42.266484 38870 net.cpp:386] Sigmoid1 -> InnerProduct1 (in-place)
I0227 23:14:42.531783 38870 net.cpp:141] Setting up Sigmoid1
I0227 23:14:42.531847 38870 net.cpp:148] Top shape: 256 4096 (1048576)
I0227 23:14:42.531853 38870 net.cpp:156] Memory required for data: 35783680
I0227 23:14:42.531867 38870 layer_factory.hpp:77] Creating layer InnerProduct2
I0227 23:14:42.531914 38870 net.cpp:91] Creating Layer InnerProduct2
I0227 23:14:42.531924 38870 net.cpp:425] InnerProduct2 <- InnerProduct1
I0227 23:14:42.531947 38870 net.cpp:399] InnerProduct2 -> InnerProduct2
I0227 23:14:42.590239 38870 net.cpp:141] Setting up InnerProduct2
I0227 23:14:42.590312 38870 net.cpp:148] Top shape: 256 4096 (1048576)
I0227 23:14:42.590319 38870 net.cpp:156] Memory required for data: 39977984
I0227 23:14:42.590343 38870 layer_factory.hpp:77] Creating layer Sigmoid2
I0227 23:14:42.590390 38870 net.cpp:91] Creating Layer Sigmoid2
I0227 23:14:42.590399 38870 net.cpp:425] Sigmoid2 <- InnerProduct2
I0227 23:14:42.590409 38870 net.cpp:386] Sigmoid2 -> InnerProduct2 (in-place)
I0227 23:14:42.590683 38870 net.cpp:141] Setting up Sigmoid2
I0227 23:14:42.590728 38870 net.cpp:148] Top shape: 256 4096 (1048576)
I0227 23:14:42.590733 38870 net.cpp:156] Memory required for data: 44172288
I0227 23:14:42.590737 38870 layer_factory.hpp:77] Creating layer InnerProduct3
I0227 23:14:42.590747 38870 net.cpp:91] Creating Layer InnerProduct3
I0227 23:14:42.590752 38870 net.cpp:425] InnerProduct3 <- InnerProduct2
I0227 23:14:42.590760 38870 net.cpp:399] InnerProduct3 -> InnerProduct3
I0227 23:14:42.975858 38870 net.cpp:141] Setting up InnerProduct3
I0227 23:14:42.975924 38870 net.cpp:148] Top shape: 256 26752 (6848512)
I0227 23:14:42.975929 38870 net.cpp:156] Memory required for data: 71566336
I0227 23:14:42.975955 38870 layer_factory.hpp:77] Creating layer SoftmaxWithLoss1
I0227 23:14:42.975982 38870 net.cpp:91] Creating Layer SoftmaxWithLoss1
I0227 23:14:42.975991 38870 net.cpp:425] SoftmaxWithLoss1 <- InnerProduct3
I0227 23:14:42.975998 38870 net.cpp:425] SoftmaxWithLoss1 <- Data2
I0227 23:14:42.976011 38870 net.cpp:399] SoftmaxWithLoss1 -> SoftmaxWithLoss1
…
