…
I0227 10:04:10.345968 23192 common.cpp:128] Start to init xgboost ......
I0227 10:04:10.346894 23192 common.cpp:162] Init xgboost finished!
I0227 10:04:10.349398 23192 net.cpp:49] Initializing net from parameters: 
>>>>>>> 42fde795b6ec93672fabde1b40f9d0cdea4ae2ba
state {
  phase: TRAIN
}
layer {
  name: "Data1"
  type: "Data"
  top: "Data1"
  top: "Data2"
  data_param {
<<<<<<< HEAD
    source: "/home/comp/csshshi/data/caffe/fake_data26752.lmdb"
=======
    source: "/home/shshi/data/caffe/fake_data26752.lmdb"
>>>>>>> 42fde795b6ec93672fabde1b40f9d0cdea4ae2ba
    batch_size: 256
    backend: LMDB
  }
}
layer {
  name: "InnerProduct1"
  type: "InnerProduct"
  bottom: "Data1"
  top: "InnerProduct1"
  inner_product_param {
    num_output: 4096
  }
}
layer {
  name: "Sigmoid1"
  type: "Sigmoid"
  bottom: "InnerProduct1"
  top: "InnerProduct1"
}
layer {
  name: "InnerProduct2"
  type: "InnerProduct"
  bottom: "InnerProduct1"
  top: "InnerProduct2"
  inner_product_param {
    num_output: 4096
  }
}
layer {
  name: "Sigmoid2"
  type: "Sigmoid"
  bottom: "InnerProduct2"
  top: "InnerProduct2"
}
layer {
  name: "InnerProduct3"
  type: "InnerProduct"
  bottom: "InnerProduct2"
  top: "InnerProduct3"
  inner_product_param {
    num_output: 26752
  }
}
layer {
  name: "SoftmaxWithLoss1"
  type: "SoftmaxWithLoss"
  bottom: "InnerProduct3"
  bottom: "Data2"
  top: "SoftmaxWithLoss1"
}
<<<<<<< HEAD
I0226 23:23:52.111378 102211 layer_factory.hpp:77] Creating layer Data1
I0226 23:23:52.112037 102211 net.cpp:91] Creating Layer Data1
I0226 23:23:52.112054 102211 net.cpp:399] Data1 -> Data1
I0226 23:23:52.112104 102211 net.cpp:399] Data1 -> Data2
I0226 23:23:52.114475 102245 common.cpp:128] Start to init xgboost ......
[23:23:52] include/dmlc/logging.h:235: [23:23:52] src/io/local_filesys.cc:154: Check failed: allow_null  LocalFileSystem: fail to open "/tmp/xgboostgemm.model"
I0226 23:23:52.116875 102245 common.cpp:162] Init xgboost finished!
I0226 23:23:52.118643 102245 db_lmdb.cpp:35] Opened lmdb /home/comp/csshshi/data/caffe/fake_data26752.lmdb
I0226 23:23:52.131032 102211 data_layer.cpp:41] output data size: 256,1,1,26752
I0226 23:23:52.188549 102211 net.cpp:141] Setting up Data1
I0226 23:23:52.188657 102211 net.cpp:148] Top shape: 256 1 1 26752 (6848512)
I0226 23:23:52.188668 102211 net.cpp:148] Top shape: 256 (256)
I0226 23:23:52.188671 102211 net.cpp:156] Memory required for data: 27395072
I0226 23:23:52.188683 102211 layer_factory.hpp:77] Creating layer InnerProduct1
I0226 23:23:52.188700 102211 net.cpp:91] Creating Layer InnerProduct1
I0226 23:23:52.188709 102211 net.cpp:425] InnerProduct1 <- Data1
I0226 23:23:52.188725 102211 net.cpp:399] InnerProduct1 -> InnerProduct1
I0226 23:23:52.364406 102277 common.cpp:128] Start to init xgboost ......
[23:23:52] include/dmlc/logging.h:235: [23:23:52] src/io/local_filesys.cc:154: Check failed: allow_null  LocalFileSystem: fail to open "/tmp/xgboostgemm.model"
I0226 23:23:52.367027 102277 common.cpp:162] Init xgboost finished!
I0226 23:23:52.417583 102277 blocking_queue.cpp:50] Waiting for data
I0226 23:23:52.483983 102211 net.cpp:141] Setting up InnerProduct1
I0226 23:23:52.484030 102211 net.cpp:148] Top shape: 256 4096 (1048576)
I0226 23:23:52.484035 102211 net.cpp:156] Memory required for data: 31589376
I0226 23:23:52.484076 102211 layer_factory.hpp:77] Creating layer Sigmoid1
I0226 23:23:52.484094 102211 net.cpp:91] Creating Layer Sigmoid1
I0226 23:23:52.484100 102211 net.cpp:425] Sigmoid1 <- InnerProduct1
I0226 23:23:52.484107 102211 net.cpp:386] Sigmoid1 -> InnerProduct1 (in-place)
I0226 23:23:52.743502 102211 net.cpp:141] Setting up Sigmoid1
I0226 23:23:52.743549 102211 net.cpp:148] Top shape: 256 4096 (1048576)
I0226 23:23:52.743556 102211 net.cpp:156] Memory required for data: 35783680
I0226 23:23:52.743566 102211 layer_factory.hpp:77] Creating layer InnerProduct2
I0226 23:23:52.743582 102211 net.cpp:91] Creating Layer InnerProduct2
I0226 23:23:52.743589 102211 net.cpp:425] InnerProduct2 <- InnerProduct1
I0226 23:23:52.743602 102211 net.cpp:399] InnerProduct2 -> InnerProduct2
I0226 23:23:52.796558 102211 net.cpp:141] Setting up InnerProduct2
I0226 23:23:52.796612 102211 net.cpp:148] Top shape: 256 4096 (1048576)
I0226 23:23:52.796618 102211 net.cpp:156] Memory required for data: 39977984
I0226 23:23:52.796653 102211 layer_factory.hpp:77] Creating layer Sigmoid2
I0226 23:23:52.796669 102211 net.cpp:91] Creating Layer Sigmoid2
I0226 23:23:52.796679 102211 net.cpp:425] Sigmoid2 <- InnerProduct2
I0226 23:23:52.796686 102211 net.cpp:386] Sigmoid2 -> InnerProduct2 (in-place)
I0226 23:23:52.797027 102211 net.cpp:141] Setting up Sigmoid2
I0226 23:23:52.797071 102211 net.cpp:148] Top shape: 256 4096 (1048576)
I0226 23:23:52.797076 102211 net.cpp:156] Memory required for data: 44172288
I0226 23:23:52.797081 102211 layer_factory.hpp:77] Creating layer InnerProduct3
I0226 23:23:52.797091 102211 net.cpp:91] Creating Layer InnerProduct3
I0226 23:23:52.797096 102211 net.cpp:425] InnerProduct3 <- InnerProduct2
I0226 23:23:52.797106 102211 net.cpp:399] InnerProduct3 -> InnerProduct3
I0226 23:23:53.092937 102211 net.cpp:141] Setting up InnerProduct3
I0226 23:23:53.092983 102211 net.cpp:148] Top shape: 256 26752 (6848512)
I0226 23:23:53.092989 102211 net.cpp:156] Memory required for data: 71566336
I0226 23:23:53.093005 102211 layer_factory.hpp:77] Creating layer SoftmaxWithLoss1
I0226 23:23:53.093024 102211 net.cpp:91] Creating Layer SoftmaxWithLoss1
I0226 23:23:53.093031 102211 net.cpp:425] SoftmaxWithLoss1 <- InnerProduct3
I0226 23:23:53.093039 102211 net.cpp:425] SoftmaxWithLoss1 <- Data2
I0226 23:23:53.093047 102211 net.cpp:399] SoftmaxWithLoss1 -> SoftmaxWithLoss1
…
