I0227 10:04:19.310497 23294 caffe.cpp:308] Use GPU with device ID 0
I0227 10:04:19.628159 23294 common.cpp:128] Start to init xgboost ......
I0227 10:04:19.639900 23294 common.cpp:162] Init xgboost finished!
I0227 10:04:19.642726 23294 net.cpp:49] Initializing net from parameters: 
state {
  phase: TRAIN
}
layer {
  name: "Data1"
  type: "Data"
  top: "Data1"
  top: "Data2"
  data_param {
    source: "/home/shshi/data/caffe/fake_data26752.lmdb"
    batch_size: 1024
    backend: LMDB
  }
}
layer {
  name: "InnerProduct1"
  type: "InnerProduct"
  bottom: "Data1"
  top: "InnerProduct1"
  inner_product_param {
    num_output: 4096
  }
}
layer {
  name: "Sigmoid1"
  type: "Sigmoid"
  bottom: "InnerProduct1"
  top: "InnerProduct1"
}
layer {
  name: "InnerProduct2"
  type: "InnerProduct"
  bottom: "InnerProduct1"
  top: "InnerProduct2"
  inner_product_param {
    num_output: 4096
  }
}
layer {
  name: "Sigmoid2"
  type: "Sigmoid"
  bottom: "InnerProduct2"
  top: "InnerProduct2"
}
layer {
  name: "InnerProduct3"
  type: "InnerProduct"
  bottom: "InnerProduct2"
  top: "InnerProduct3"
  inner_product_param {
    num_output: 26752
  }
}
layer {
  name: "SoftmaxWithLoss1"
  type: "SoftmaxWithLoss"
  bottom: "InnerProduct3"
  bottom: "Data2"
  top: "SoftmaxWithLoss1"
}
I0227 10:04:19.642827 23294 layer_factory.hpp:77] Creating layer Data1
I0227 10:04:19.644651 23294 net.cpp:91] Creating Layer Data1
I0227 10:04:19.644691 23294 net.cpp:399] Data1 -> Data1
I0227 10:04:19.644752 23294 net.cpp:399] Data1 -> Data2
I0227 10:04:19.645957 23321 common.cpp:128] Start to init xgboost ......
I0227 10:04:19.647120 23321 common.cpp:162] Init xgboost finished!
I0227 10:04:19.647303 23321 db_lmdb.cpp:35] Opened lmdb /home/shshi/data/caffe/fake_data26752.lmdb
I0227 10:04:19.665772 23294 data_layer.cpp:41] output data size: 1024,1,1,26752
I0227 10:04:19.869190 23294 net.cpp:141] Setting up Data1
I0227 10:04:19.869268 23294 net.cpp:148] Top shape: 1024 1 1 26752 (27394048)
I0227 10:04:19.869278 23294 net.cpp:148] Top shape: 1024 (1024)
I0227 10:04:19.869282 23294 net.cpp:156] Memory required for data: 109580288
I0227 10:04:19.869294 23294 layer_factory.hpp:77] Creating layer InnerProduct1
I0227 10:04:19.869313 23294 net.cpp:91] Creating Layer InnerProduct1
I0227 10:04:19.869318 23294 net.cpp:425] InnerProduct1 <- Data1
I0227 10:04:19.869335 23294 net.cpp:399] InnerProduct1 -> InnerProduct1
I0227 10:04:20.016567 23333 common.cpp:128] Start to init xgboost ......
I0227 10:04:20.018347 23333 common.cpp:162] Init xgboost finished!
I0227 10:04:20.117501 23294 net.cpp:141] Setting up InnerProduct1
I0227 10:04:20.117539 23294 net.cpp:148] Top shape: 1024 4096 (4194304)
I0227 10:04:20.117544 23294 net.cpp:156] Memory required for data: 126357504
I0227 10:04:20.117579 23294 layer_factory.hpp:77] Creating layer Sigmoid1
I0227 10:04:20.117596 23294 net.cpp:91] Creating Layer Sigmoid1
I0227 10:04:20.117601 23294 net.cpp:425] Sigmoid1 <- InnerProduct1
I0227 10:04:20.117607 23294 net.cpp:386] Sigmoid1 -> InnerProduct1 (in-place)
I0227 10:04:20.253031 23333 blocking_queue.cpp:50] Waiting for data
I0227 10:04:20.368868 23294 net.cpp:141] Setting up Sigmoid1
I0227 10:04:20.368903 23294 net.cpp:148] Top shape: 1024 4096 (4194304)
I0227 10:04:20.368907 23294 net.cpp:156] Memory required for data: 143134720
I0227 10:04:20.368913 23294 layer_factory.hpp:77] Creating layer InnerProduct2
I0227 10:04:20.368926 23294 net.cpp:91] Creating Layer InnerProduct2
I0227 10:04:20.368929 23294 net.cpp:425] InnerProduct2 <- InnerProduct1
I0227 10:04:20.368937 23294 net.cpp:399] InnerProduct2 -> InnerProduct2
I0227 10:04:20.401011 23294 net.cpp:141] Setting up InnerProduct2
I0227 10:04:20.401047 23294 net.cpp:148] Top shape: 1024 4096 (4194304)
I0227 10:04:20.401051 23294 net.cpp:156] Memory required for data: 159911936
I0227 10:04:20.401064 23294 layer_factory.hpp:77] Creating layer Sigmoid2
I0227 10:04:20.401075 23294 net.cpp:91] Creating Layer Sigmoid2
I0227 10:04:20.401080 23294 net.cpp:425] Sigmoid2 <- InnerProduct2
I0227 10:04:20.401087 23294 net.cpp:386] Sigmoid2 -> InnerProduct2 (in-place)
I0227 10:04:20.401310 23294 net.cpp:141] Setting up Sigmoid2
I0227 10:04:20.401332 23294 net.cpp:148] Top shape: 1024 4096 (4194304)
I0227 10:04:20.401336 23294 net.cpp:156] Memory required for data: 176689152
I0227 10:04:20.401340 23294 layer_factory.hpp:77] Creating layer InnerProduct3
I0227 10:04:20.401347 23294 net.cpp:91] Creating Layer InnerProduct3
I0227 10:04:20.401350 23294 net.cpp:425] InnerProduct3 <- InnerProduct2
I0227 10:04:20.401361 23294 net.cpp:399] InnerProduct3 -> InnerProduct3
I0227 10:04:20.607666 23294 net.cpp:141] Setting up InnerProduct3
I0227 10:04:20.607699 23294 net.cpp:148] Top shape: 1024 26752 (27394048)
I0227 10:04:20.607703 23294 net.cpp:156] Memory required for data: 286265344
I0227 10:04:20.607718 23294 layer_factory.hpp:77] Creating layer SoftmaxWithLoss1
I0227 10:04:20.607731 23294 net.cpp:91] Creating Layer SoftmaxWithLoss1
I0227 10:04:20.607736 23294 net.cpp:425] SoftmaxWithLoss1 <- InnerProduct3
I0227 10:04:20.607743 23294 net.cpp:425] SoftmaxWithLoss1 <- Data2
I0227 10:04:20.607750 23294 net.cpp:399] SoftmaxWithLoss1 -> SoftmaxWithLoss1
…
