…
I0226 23:24:06.058189 102409 common.cpp:128] Start to init xgboost ......
[23:24:06] include/dmlc/logging.h:235: [23:24:06] src/io/local_filesys.cc:154: Check failed: allow_null  LocalFileSystem: fail to open "/tmp/xgboostgemm.model"
I0226 23:24:06.064306 102409 common.cpp:162] Init xgboost finished!
I0226 23:24:06.067224 102409 net.cpp:49] Initializing net from parameters: 
state {
  phase: TRAIN
}
layer {
  name: "Data1"
  type: "Data"
  top: "Data1"
  top: "Data2"
  data_param {
    source: "/home/comp/csshshi/data/caffe/fake_data26752.lmdb"
    batch_size: 512
    backend: LMDB
  }
}
layer {
  name: "InnerProduct1"
  type: "InnerProduct"
  bottom: "Data1"
  top: "InnerProduct1"
  inner_product_param {
    num_output: 4096
  }
}
layer {
  name: "Sigmoid1"
  type: "Sigmoid"
  bottom: "InnerProduct1"
  top: "InnerProduct1"
}
layer {
  name: "InnerProduct2"
  type: "InnerProduct"
  bottom: "InnerProduct1"
  top: "InnerProduct2"
  inner_product_param {
    num_output: 4096
  }
}
layer {
  name: "Sigmoid2"
  type: "Sigmoid"
  bottom: "InnerProduct2"
  top: "InnerProduct2"
}
layer {
  name: "InnerProduct3"
  type: "InnerProduct"
  bottom: "InnerProduct2"
  top: "InnerProduct3"
  inner_product_param {
    num_output: 26752
  }
}
layer {
  name: "SoftmaxWithLoss1"
  type: "SoftmaxWithLoss"
  bottom: "InnerProduct3"
  bottom: "Data2"
  top: "SoftmaxWithLoss1"
}
I0226 23:24:06.067288 102409 layer_factory.hpp:77] Creating layer Data1
I0226 23:24:06.068125 102409 net.cpp:91] Creating Layer Data1
I0226 23:24:06.068150 102409 net.cpp:399] Data1 -> Data1
I0226 23:24:06.068194 102409 net.cpp:399] Data1 -> Data2
I0226 23:24:06.069618 102443 common.cpp:128] Start to init xgboost ......
[23:24:06] include/dmlc/logging.h:235: [23:24:06] src/io/local_filesys.cc:154: Check failed: allow_null  LocalFileSystem: fail to open "/tmp/xgboostgemm.model"
I0226 23:24:06.071483 102443 common.cpp:162] Init xgboost finished!
I0226 23:24:06.073052 102443 db_lmdb.cpp:35] Opened lmdb /home/comp/csshshi/data/caffe/fake_data26752.lmdb
I0226 23:24:06.085350 102409 data_layer.cpp:41] output data size: 512,1,1,26752
I0226 23:24:06.200557 102409 net.cpp:141] Setting up Data1
I0226 23:24:06.200650 102409 net.cpp:148] Top shape: 512 1 1 26752 (13697024)
I0226 23:24:06.200659 102409 net.cpp:148] Top shape: 512 (512)
I0226 23:24:06.200664 102409 net.cpp:156] Memory required for data: 54790144
I0226 23:24:06.200675 102409 layer_factory.hpp:77] Creating layer InnerProduct1
I0226 23:24:06.200696 102409 net.cpp:91] Creating Layer InnerProduct1
I0226 23:24:06.200703 102409 net.cpp:425] InnerProduct1 <- Data1
I0226 23:24:06.200718 102409 net.cpp:399] InnerProduct1 -> InnerProduct1
I0226 23:24:06.366683 102475 common.cpp:128] Start to init xgboost ......
[23:24:06] include/dmlc/logging.h:235: [23:24:06] src/io/local_filesys.cc:154: Check failed: allow_null  LocalFileSystem: fail to open "/tmp/xgboostgemm.model"
I0226 23:24:06.374662 102475 common.cpp:162] Init xgboost finished!
I0226 23:24:06.420730 102475 blocking_queue.cpp:50] Waiting for data
I0226 23:24:06.496346 102409 net.cpp:141] Setting up InnerProduct1
I0226 23:24:06.496386 102409 net.cpp:148] Top shape: 512 4096 (2097152)
I0226 23:24:06.496392 102409 net.cpp:156] Memory required for data: 63178752
I0226 23:24:06.496438 102409 layer_factory.hpp:77] Creating layer Sigmoid1
I0226 23:24:06.496455 102409 net.cpp:91] Creating Layer Sigmoid1
I0226 23:24:06.496461 102409 net.cpp:425] Sigmoid1 <- InnerProduct1
I0226 23:24:06.496470 102409 net.cpp:386] Sigmoid1 -> InnerProduct1 (in-place)
I0226 23:24:06.755250 102409 net.cpp:141] Setting up Sigmoid1
I0226 23:24:06.755298 102409 net.cpp:148] Top shape: 512 4096 (2097152)
I0226 23:24:06.755305 102409 net.cpp:156] Memory required for data: 71567360
I0226 23:24:06.755313 102409 layer_factory.hpp:77] Creating layer InnerProduct2
I0226 23:24:06.755352 102409 net.cpp:91] Creating Layer InnerProduct2
I0226 23:24:06.755358 102409 net.cpp:425] InnerProduct2 <- InnerProduct1
I0226 23:24:06.755378 102409 net.cpp:399] InnerProduct2 -> InnerProduct2
I0226 23:24:06.800292 102409 net.cpp:141] Setting up InnerProduct2
I0226 23:24:06.800339 102409 net.cpp:148] Top shape: 512 4096 (2097152)
I0226 23:24:06.800344 102409 net.cpp:156] Memory required for data: 79955968
I0226 23:24:06.800361 102409 layer_factory.hpp:77] Creating layer Sigmoid2
I0226 23:24:06.800403 102409 net.cpp:91] Creating Layer Sigmoid2
I0226 23:24:06.800410 102409 net.cpp:425] Sigmoid2 <- InnerProduct2
I0226 23:24:06.800420 102409 net.cpp:386] Sigmoid2 -> InnerProduct2 (in-place)
I0226 23:24:06.800662 102409 net.cpp:141] Setting up Sigmoid2
I0226 23:24:06.800704 102409 net.cpp:148] Top shape: 512 4096 (2097152)
I0226 23:24:06.800709 102409 net.cpp:156] Memory required for data: 88344576
I0226 23:24:06.800714 102409 layer_factory.hpp:77] Creating layer InnerProduct3
I0226 23:24:06.800722 102409 net.cpp:91] Creating Layer InnerProduct3
I0226 23:24:06.800726 102409 net.cpp:425] InnerProduct3 <- InnerProduct2
I0226 23:24:06.800734 102409 net.cpp:399] InnerProduct3 -> InnerProduct3
I0226 23:24:07.092165 102409 net.cpp:141] Setting up InnerProduct3
I0226 23:24:07.092209 102409 net.cpp:148] Top shape: 512 26752 (13697024)
I0226 23:24:07.092216 102409 net.cpp:156] Memory required for data: 143132672
I0226 23:24:07.092236 102409 layer_factory.hpp:77] Creating layer SoftmaxWithLoss1
I0226 23:24:07.092254 102409 net.cpp:91] Creating Layer SoftmaxWithLoss1
I0226 23:24:07.092260 102409 net.cpp:425] SoftmaxWithLoss1 <- InnerProduct3
I0226 23:24:07.092268 102409 net.cpp:425] SoftmaxWithLoss1 <- Data2
I0226 23:24:07.092278 102409 net.cpp:399] SoftmaxWithLoss1 -> SoftmaxWithLoss1
…
