I0226 22:41:52.429474  8491 caffe.cpp:308] Use GPU with device ID 0
I0226 22:41:52.827036  8491 net.cpp:49] Initializing net from parameters: 
state {
  phase: TRAIN
}
layer {
  name: "Data1"
  type: "Data"
  top: "Data1"
  top: "Data2"
  data_param {
    source: "/home/dl/data/caffe/fake_data26752.lmdb"
    batch_size: 128
    backend: LMDB
  }
}
layer {
  name: "InnerProduct1"
  type: "InnerProduct"
  bottom: "Data1"
  top: "InnerProduct1"
  inner_product_param {
    num_output: 4096
  }
}
layer {
  name: "Sigmoid1"
  type: "Sigmoid"
  bottom: "InnerProduct1"
  top: "InnerProduct1"
}
layer {
  name: "InnerProduct2"
  type: "InnerProduct"
  bottom: "InnerProduct1"
  top: "InnerProduct2"
  inner_product_param {
    num_output: 4096
  }
}
layer {
  name: "Sigmoid2"
  type: "Sigmoid"
  bottom: "InnerProduct2"
  top: "InnerProduct2"
}
layer {
  name: "InnerProduct3"
  type: "InnerProduct"
  bottom: "InnerProduct2"
  top: "InnerProduct3"
  inner_product_param {
    num_output: 26752
  }
}
layer {
  name: "SoftmaxWithLoss1"
  type: "SoftmaxWithLoss"
  bottom: "InnerProduct3"
  bottom: "Data2"
  top: "SoftmaxWithLoss1"
}
I0226 22:41:52.827117  8491 layer_factory.hpp:77] Creating layer Data1
I0226 22:41:52.827466  8491 net.cpp:91] Creating Layer Data1
I0226 22:41:52.827481  8491 net.cpp:399] Data1 -> Data1
I0226 22:41:52.827507  8491 net.cpp:399] Data1 -> Data2
I0226 22:41:52.828963  8498 db_lmdb.cpp:35] Opened lmdb /home/dl/data/caffe/fake_data26752.lmdb
I0226 22:41:52.844782  8491 data_layer.cpp:41] output data size: 128,1,1,26752
I0226 22:41:52.866782  8491 net.cpp:141] Setting up Data1
I0226 22:41:52.866839  8491 net.cpp:148] Top shape: 128 1 1 26752 (3424256)
I0226 22:41:52.866848  8491 net.cpp:148] Top shape: 128 (128)
I0226 22:41:52.866855  8491 net.cpp:156] Memory required for data: 13697536
I0226 22:41:52.866868  8491 layer_factory.hpp:77] Creating layer InnerProduct1
I0226 22:41:52.866884  8491 net.cpp:91] Creating Layer InnerProduct1
I0226 22:41:52.866894  8491 net.cpp:425] InnerProduct1 <- Data1
I0226 22:41:52.866907  8491 net.cpp:399] InnerProduct1 -> InnerProduct1
I0226 22:41:53.047206  8491 net.cpp:141] Setting up InnerProduct1
I0226 22:41:53.047253  8491 net.cpp:148] Top shape: 128 4096 (524288)
I0226 22:41:53.047261  8491 net.cpp:156] Memory required for data: 15794688
I0226 22:41:53.047283  8491 layer_factory.hpp:77] Creating layer Sigmoid1
I0226 22:41:53.047299  8491 net.cpp:91] Creating Layer Sigmoid1
I0226 22:41:53.047307  8491 net.cpp:425] Sigmoid1 <- InnerProduct1
I0226 22:41:53.047317  8491 net.cpp:386] Sigmoid1 -> InnerProduct1 (in-place)
I0226 22:41:53.225493  8491 net.cpp:141] Setting up Sigmoid1
I0226 22:41:53.225538  8491 net.cpp:148] Top shape: 128 4096 (524288)
I0226 22:41:53.225545  8491 net.cpp:156] Memory required for data: 17891840
I0226 22:41:53.225554  8491 layer_factory.hpp:77] Creating layer InnerProduct2
I0226 22:41:53.225569  8491 net.cpp:91] Creating Layer InnerProduct2
I0226 22:41:53.225577  8491 net.cpp:425] InnerProduct2 <- InnerProduct1
I0226 22:41:53.225587  8491 net.cpp:399] InnerProduct2 -> InnerProduct2
I0226 22:41:53.252327  8491 net.cpp:141] Setting up InnerProduct2
I0226 22:41:53.252377  8491 net.cpp:148] Top shape: 128 4096 (524288)
I0226 22:41:53.252385  8491 net.cpp:156] Memory required for data: 19988992
I0226 22:41:53.252403  8491 layer_factory.hpp:77] Creating layer Sigmoid2
I0226 22:41:53.252418  8491 net.cpp:91] Creating Layer Sigmoid2
I0226 22:41:53.252425  8491 net.cpp:425] Sigmoid2 <- InnerProduct2
I0226 22:41:53.252434  8491 net.cpp:386] Sigmoid2 -> InnerProduct2 (in-place)
I0226 22:41:53.253016  8491 net.cpp:141] Setting up Sigmoid2
I0226 22:41:53.253031  8491 net.cpp:148] Top shape: 128 4096 (524288)
I0226 22:41:53.253037  8491 net.cpp:156] Memory required for data: 22086144
I0226 22:41:53.253044  8491 layer_factory.hpp:77] Creating layer InnerProduct3
I0226 22:41:53.253054  8491 net.cpp:91] Creating Layer InnerProduct3
I0226 22:41:53.253060  8491 net.cpp:425] InnerProduct3 <- InnerProduct2
I0226 22:41:53.253068  8491 net.cpp:399] InnerProduct3 -> InnerProduct3
I0226 22:41:53.426154  8491 net.cpp:141] Setting up InnerProduct3
I0226 22:41:53.426219  8491 net.cpp:148] Top shape: 128 26752 (3424256)
I0226 22:41:53.426235  8491 net.cpp:156] Memory required for data: 35783168
I0226 22:41:53.426254  8491 layer_factory.hpp:77] Creating layer SoftmaxWithLoss1
I0226 22:41:53.426266  8491 net.cpp:91] Creating Layer SoftmaxWithLoss1
I0226 22:41:53.426275  8491 net.cpp:425] SoftmaxWithLoss1 <- InnerProduct3
I0226 22:41:53.426283  8491 net.cpp:425] SoftmaxWithLoss1 <- Data2
I0226 22:41:53.426295  8491 net.cpp:399] SoftmaxWithLoss1 -> SoftmaxWithLoss1
…
