I0227 10:04:28.377140 23346 caffe.cpp:308] Use GPU with device ID 0
I0227 10:04:28.667637 23346 common.cpp:128] Start to init xgboost ......
I0227 10:04:28.668730 23346 common.cpp:162] Init xgboost finished!
I0227 10:04:28.671221 23346 net.cpp:49] Initializing net from parameters: 
state {
  phase: TRAIN
}
layer {
  name: "Data1"
  type: "Data"
  top: "Data1"
  top: "Data2"
  data_param {
    source: "/home/shshi/data/caffe/fake_data26752.lmdb"
    batch_size: 2048
    backend: LMDB
  }
}
layer {
  name: "InnerProduct1"
  type: "InnerProduct"
  bottom: "Data1"
  top: "InnerProduct1"
  inner_product_param {
    num_output: 4096
  }
}
layer {
  name: "Sigmoid1"
  type: "Sigmoid"
  bottom: "InnerProduct1"
  top: "InnerProduct1"
}
layer {
  name: "InnerProduct2"
  type: "InnerProduct"
  bottom: "InnerProduct1"
  top: "InnerProduct2"
  inner_product_param {
    num_output: 4096
  }
}
layer {
  name: "Sigmoid2"
  type: "Sigmoid"
  bottom: "InnerProduct2"
  top: "InnerProduct2"
}
layer {
  name: "InnerProduct3"
  type: "InnerProduct"
  bottom: "InnerProduct2"
  top: "InnerProduct3"
  inner_product_param {
    num_output: 26752
  }
}
layer {
  name: "SoftmaxWithLoss1"
  type: "SoftmaxWithLoss"
  bottom: "InnerProduct3"
  bottom: "Data2"
  top: "SoftmaxWithLoss1"
}
I0227 10:04:28.671291 23346 layer_factory.hpp:77] Creating layer Data1
I0227 10:04:28.672976 23346 net.cpp:91] Creating Layer Data1
I0227 10:04:28.672993 23346 net.cpp:399] Data1 -> Data1
I0227 10:04:28.673069 23346 net.cpp:399] Data1 -> Data2
I0227 10:04:28.674355 23372 common.cpp:128] Start to init xgboost ......
I0227 10:04:28.675659 23372 common.cpp:162] Init xgboost finished!
I0227 10:04:28.675839 23372 db_lmdb.cpp:35] Opened lmdb /home/shshi/data/caffe/fake_data26752.lmdb
I0227 10:04:28.694221 23346 data_layer.cpp:41] output data size: 2048,1,1,26752
I0227 10:04:29.052382 23346 net.cpp:141] Setting up Data1
I0227 10:04:29.052438 23346 net.cpp:148] Top shape: 2048 1 1 26752 (54788096)
I0227 10:04:29.052443 23346 net.cpp:148] Top shape: 2048 (2048)
I0227 10:04:29.052448 23346 net.cpp:156] Memory required for data: 219160576
I0227 10:04:29.052458 23346 layer_factory.hpp:77] Creating layer InnerProduct1
I0227 10:04:29.052472 23346 net.cpp:91] Creating Layer InnerProduct1
I0227 10:04:29.052479 23346 net.cpp:425] InnerProduct1 <- Data1
I0227 10:04:29.052492 23346 net.cpp:399] InnerProduct1 -> InnerProduct1
I0227 10:04:29.176304 23384 common.cpp:128] Start to init xgboost ......
I0227 10:04:29.177825 23384 common.cpp:162] Init xgboost finished!
I0227 10:04:29.269851 23346 net.cpp:141] Setting up InnerProduct1
I0227 10:04:29.269887 23346 net.cpp:148] Top shape: 2048 4096 (8388608)
I0227 10:04:29.269892 23346 net.cpp:156] Memory required for data: 252715008
I0227 10:04:29.269917 23346 layer_factory.hpp:77] Creating layer Sigmoid1
I0227 10:04:29.269930 23346 net.cpp:91] Creating Layer Sigmoid1
I0227 10:04:29.269935 23346 net.cpp:425] Sigmoid1 <- InnerProduct1
I0227 10:04:29.269943 23346 net.cpp:386] Sigmoid1 -> InnerProduct1 (in-place)
I0227 10:04:29.534654 23346 net.cpp:141] Setting up Sigmoid1
I0227 10:04:29.534696 23346 net.cpp:148] Top shape: 2048 4096 (8388608)
I0227 10:04:29.534703 23346 net.cpp:156] Memory required for data: 286269440
I0227 10:04:29.534711 23346 layer_factory.hpp:77] Creating layer InnerProduct2
I0227 10:04:29.534726 23346 net.cpp:91] Creating Layer InnerProduct2
I0227 10:04:29.534734 23346 net.cpp:425] InnerProduct2 <- InnerProduct1
I0227 10:04:29.534744 23346 net.cpp:399] InnerProduct2 -> InnerProduct2
I0227 10:04:29.576308 23346 net.cpp:141] Setting up InnerProduct2
I0227 10:04:29.576346 23346 net.cpp:148] Top shape: 2048 4096 (8388608)
I0227 10:04:29.576351 23346 net.cpp:156] Memory required for data: 319823872
I0227 10:04:29.576367 23346 layer_factory.hpp:77] Creating layer Sigmoid2
I0227 10:04:29.576380 23346 net.cpp:91] Creating Layer Sigmoid2
I0227 10:04:29.576385 23346 net.cpp:425] Sigmoid2 <- InnerProduct2
I0227 10:04:29.576393 23346 net.cpp:386] Sigmoid2 -> InnerProduct2 (in-place)
I0227 10:04:29.576647 23346 net.cpp:141] Setting up Sigmoid2
I0227 10:04:29.576683 23346 net.cpp:148] Top shape: 2048 4096 (8388608)
I0227 10:04:29.576697 23346 net.cpp:156] Memory required for data: 353378304
I0227 10:04:29.576702 23346 layer_factory.hpp:77] Creating layer InnerProduct3
I0227 10:04:29.576711 23346 net.cpp:91] Creating Layer InnerProduct3
I0227 10:04:29.576716 23346 net.cpp:425] InnerProduct3 <- InnerProduct2
I0227 10:04:29.576722 23346 net.cpp:399] InnerProduct3 -> InnerProduct3
I0227 10:04:29.784806 23346 net.cpp:141] Setting up InnerProduct3
I0227 10:04:29.784840 23346 net.cpp:148] Top shape: 2048 26752 (54788096)
I0227 10:04:29.784844 23346 net.cpp:156] Memory required for data: 572530688
I0227 10:04:29.784857 23346 layer_factory.hpp:77] Creating layer SoftmaxWithLoss1
I0227 10:04:29.784870 23346 net.cpp:91] Creating Layer SoftmaxWithLoss1
I0227 10:04:29.784875 23346 net.cpp:425] SoftmaxWithLoss1 <- InnerProduct3
I0227 10:04:29.784881 23346 net.cpp:425] SoftmaxWithLoss1 <- Data2
I0227 10:04:29.784888 23346 net.cpp:399] SoftmaxWithLoss1 -> SoftmaxWithLoss1
…
