I0226 22:42:01.116281  8521 caffe.cpp:308] Use GPU with device ID 0
I0226 22:42:01.406607  8521 net.cpp:49] Initializing net from parameters: 
state {
  phase: TRAIN
}
layer {
  name: "Data1"
  type: "Data"
  top: "Data1"
  top: "Data2"
  data_param {
    source: "/home/dl/data/caffe/fake_data26752.lmdb"
    batch_size: 1024
    backend: LMDB
  }
}
layer {
  name: "InnerProduct1"
  type: "InnerProduct"
  bottom: "Data1"
  top: "InnerProduct1"
  inner_product_param {
    num_output: 4096
  }
}
layer {
  name: "Sigmoid1"
  type: "Sigmoid"
  bottom: "InnerProduct1"
  top: "InnerProduct1"
}
layer {
  name: "InnerProduct2"
  type: "InnerProduct"
  bottom: "InnerProduct1"
  top: "InnerProduct2"
  inner_product_param {
    num_output: 4096
  }
}
layer {
  name: "Sigmoid2"
  type: "Sigmoid"
  bottom: "InnerProduct2"
  top: "InnerProduct2"
}
layer {
  name: "InnerProduct3"
  type: "InnerProduct"
  bottom: "InnerProduct2"
  top: "InnerProduct3"
  inner_product_param {
    num_output: 26752
  }
}
layer {
  name: "SoftmaxWithLoss1"
  type: "SoftmaxWithLoss"
  bottom: "InnerProduct3"
  bottom: "Data2"
  top: "SoftmaxWithLoss1"
}
I0226 22:42:01.406690  8521 layer_factory.hpp:77] Creating layer Data1
I0226 22:42:01.407402  8521 net.cpp:91] Creating Layer Data1
I0226 22:42:01.407418  8521 net.cpp:399] Data1 -> Data1
I0226 22:42:01.407441  8521 net.cpp:399] Data1 -> Data2
I0226 22:42:01.408113  8527 db_lmdb.cpp:35] Opened lmdb /home/dl/data/caffe/fake_data26752.lmdb
I0226 22:42:01.423800  8521 data_layer.cpp:41] output data size: 1024,1,1,26752
I0226 22:42:01.583894  8521 net.cpp:141] Setting up Data1
I0226 22:42:01.583955  8521 net.cpp:148] Top shape: 1024 1 1 26752 (27394048)
I0226 22:42:01.583964  8521 net.cpp:148] Top shape: 1024 (1024)
I0226 22:42:01.583971  8521 net.cpp:156] Memory required for data: 109580288
I0226 22:42:01.583983  8521 layer_factory.hpp:77] Creating layer InnerProduct1
I0226 22:42:01.584002  8521 net.cpp:91] Creating Layer InnerProduct1
I0226 22:42:01.584010  8521 net.cpp:425] InnerProduct1 <- Data1
I0226 22:42:01.584025  8521 net.cpp:399] InnerProduct1 -> InnerProduct1
I0226 22:42:01.765518  8521 net.cpp:141] Setting up InnerProduct1
I0226 22:42:01.765563  8521 net.cpp:148] Top shape: 1024 4096 (4194304)
I0226 22:42:01.765571  8521 net.cpp:156] Memory required for data: 126357504
I0226 22:42:01.765594  8521 layer_factory.hpp:77] Creating layer Sigmoid1
I0226 22:42:01.765614  8521 net.cpp:91] Creating Layer Sigmoid1
I0226 22:42:01.765624  8521 net.cpp:425] Sigmoid1 <- InnerProduct1
I0226 22:42:01.765632  8521 net.cpp:386] Sigmoid1 -> InnerProduct1 (in-place)
I0226 22:42:02.056155  8521 net.cpp:141] Setting up Sigmoid1
I0226 22:42:02.056205  8521 net.cpp:148] Top shape: 1024 4096 (4194304)
I0226 22:42:02.056212  8521 net.cpp:156] Memory required for data: 143134720
I0226 22:42:02.056221  8521 layer_factory.hpp:77] Creating layer InnerProduct2
I0226 22:42:02.056234  8521 net.cpp:91] Creating Layer InnerProduct2
I0226 22:42:02.056242  8521 net.cpp:425] InnerProduct2 <- InnerProduct1
I0226 22:42:02.056254  8521 net.cpp:399] InnerProduct2 -> InnerProduct2
I0226 22:42:02.084972  8521 net.cpp:141] Setting up InnerProduct2
I0226 22:42:02.085026  8521 net.cpp:148] Top shape: 1024 4096 (4194304)
I0226 22:42:02.085034  8521 net.cpp:156] Memory required for data: 159911936
I0226 22:42:02.085052  8521 layer_factory.hpp:77] Creating layer Sigmoid2
I0226 22:42:02.085067  8521 net.cpp:91] Creating Layer Sigmoid2
I0226 22:42:02.085075  8521 net.cpp:425] Sigmoid2 <- InnerProduct2
I0226 22:42:02.085084  8521 net.cpp:386] Sigmoid2 -> InnerProduct2 (in-place)
I0226 22:42:02.085713  8521 net.cpp:141] Setting up Sigmoid2
I0226 22:42:02.085733  8521 net.cpp:148] Top shape: 1024 4096 (4194304)
I0226 22:42:02.085741  8521 net.cpp:156] Memory required for data: 176689152
I0226 22:42:02.085747  8521 layer_factory.hpp:77] Creating layer InnerProduct3
I0226 22:42:02.085757  8521 net.cpp:91] Creating Layer InnerProduct3
I0226 22:42:02.085764  8521 net.cpp:425] InnerProduct3 <- InnerProduct2
I0226 22:42:02.085773  8521 net.cpp:399] InnerProduct3 -> InnerProduct3
I0226 22:42:02.265532  8521 net.cpp:141] Setting up InnerProduct3
I0226 22:42:02.265590  8521 net.cpp:148] Top shape: 1024 26752 (27394048)
I0226 22:42:02.265599  8521 net.cpp:156] Memory required for data: 286265344
I0226 22:42:02.265617  8521 layer_factory.hpp:77] Creating layer SoftmaxWithLoss1
I0226 22:42:02.265631  8521 net.cpp:91] Creating Layer SoftmaxWithLoss1
I0226 22:42:02.265640  8521 net.cpp:425] SoftmaxWithLoss1 <- InnerProduct3
I0226 22:42:02.265648  8521 net.cpp:425] SoftmaxWithLoss1 <- Data2
I0226 22:42:02.265660  8521 net.cpp:399] SoftmaxWithLoss1 -> SoftmaxWithLoss1
…
