…
I0226 23:23:41.867040 102012 common.cpp:128] Start to init xgboost ......
[23:23:41] include/dmlc/logging.h:235: [23:23:41] src/io/local_filesys.cc:154: Check failed: allow_null  LocalFileSystem: fail to open "/tmp/xgboostgemm.model"
I0226 23:23:41.869346 102012 common.cpp:162] Init xgboost finished!
I0226 23:23:41.872277 102012 net.cpp:49] Initializing net from parameters: 
state {
  phase: TRAIN
}
layer {
  name: "Data1"
  type: "Data"
  top: "Data1"
  top: "Data2"
  data_param {
    source: "/home/comp/csshshi/data/caffe/fake_data26752.lmdb"
    batch_size: 128
    backend: LMDB
  }
}
layer {
  name: "InnerProduct1"
  type: "InnerProduct"
  bottom: "Data1"
  top: "InnerProduct1"
  inner_product_param {
    num_output: 4096
  }
}
layer {
  name: "Sigmoid1"
  type: "Sigmoid"
  bottom: "InnerProduct1"
  top: "InnerProduct1"
}
layer {
  name: "InnerProduct2"
  type: "InnerProduct"
  bottom: "InnerProduct1"
  top: "InnerProduct2"
  inner_product_param {
    num_output: 4096
  }
}
layer {
  name: "Sigmoid2"
  type: "Sigmoid"
  bottom: "InnerProduct2"
  top: "InnerProduct2"
}
layer {
  name: "InnerProduct3"
  type: "InnerProduct"
  bottom: "InnerProduct2"
  top: "InnerProduct3"
  inner_product_param {
    num_output: 26752
  }
}
layer {
  name: "SoftmaxWithLoss1"
  type: "SoftmaxWithLoss"
  bottom: "InnerProduct3"
  bottom: "Data2"
  top: "SoftmaxWithLoss1"
}
I0226 23:23:41.872340 102012 layer_factory.hpp:77] Creating layer Data1
I0226 23:23:41.872947 102012 net.cpp:91] Creating Layer Data1
I0226 23:23:41.872969 102012 net.cpp:399] Data1 -> Data1
I0226 23:23:41.873013 102012 net.cpp:399] Data1 -> Data2
I0226 23:23:41.874450 102046 common.cpp:128] Start to init xgboost ......
[23:23:41] include/dmlc/logging.h:235: [23:23:41] src/io/local_filesys.cc:154: Check failed: allow_null  LocalFileSystem: fail to open "/tmp/xgboostgemm.model"
I0226 23:23:41.876277 102046 common.cpp:162] Init xgboost finished!
I0226 23:23:41.877907 102046 db_lmdb.cpp:35] Opened lmdb /home/comp/csshshi/data/caffe/fake_data26752.lmdb
I0226 23:23:41.890420 102012 data_layer.cpp:41] output data size: 128,1,1,26752
I0226 23:23:41.918151 102012 net.cpp:141] Setting up Data1
I0226 23:23:41.918248 102012 net.cpp:148] Top shape: 128 1 1 26752 (3424256)
I0226 23:23:41.918257 102012 net.cpp:148] Top shape: 128 (128)
I0226 23:23:41.918262 102012 net.cpp:156] Memory required for data: 13697536
I0226 23:23:41.918273 102012 layer_factory.hpp:77] Creating layer InnerProduct1
I0226 23:23:41.918292 102012 net.cpp:91] Creating Layer InnerProduct1
I0226 23:23:41.918299 102012 net.cpp:425] InnerProduct1 <- Data1
I0226 23:23:41.918318 102012 net.cpp:399] InnerProduct1 -> InnerProduct1
I0226 23:23:42.095369 102078 common.cpp:128] Start to init xgboost ......
[23:23:42] include/dmlc/logging.h:235: [23:23:42] src/io/local_filesys.cc:154: Check failed: allow_null  LocalFileSystem: fail to open "/tmp/xgboostgemm.model"
I0226 23:23:42.098131 102078 common.cpp:162] Init xgboost finished!
I0226 23:23:42.132441 102078 blocking_queue.cpp:50] Waiting for data
I0226 23:23:42.213594 102012 net.cpp:141] Setting up InnerProduct1
I0226 23:23:42.213634 102012 net.cpp:148] Top shape: 128 4096 (524288)
I0226 23:23:42.213639 102012 net.cpp:156] Memory required for data: 15794688
I0226 23:23:42.213680 102012 layer_factory.hpp:77] Creating layer Sigmoid1
I0226 23:23:42.213696 102012 net.cpp:91] Creating Layer Sigmoid1
I0226 23:23:42.213701 102012 net.cpp:425] Sigmoid1 <- InnerProduct1
I0226 23:23:42.213711 102012 net.cpp:386] Sigmoid1 -> InnerProduct1 (in-place)
I0226 23:23:42.436028 102012 net.cpp:141] Setting up Sigmoid1
I0226 23:23:42.436076 102012 net.cpp:148] Top shape: 128 4096 (524288)
I0226 23:23:42.436084 102012 net.cpp:156] Memory required for data: 17891840
I0226 23:23:42.436094 102012 layer_factory.hpp:77] Creating layer InnerProduct2
I0226 23:23:42.436112 102012 net.cpp:91] Creating Layer InnerProduct2
I0226 23:23:42.436120 102012 net.cpp:425] InnerProduct2 <- InnerProduct1
I0226 23:23:42.436133 102012 net.cpp:399] InnerProduct2 -> InnerProduct2
I0226 23:23:42.485741 102012 net.cpp:141] Setting up InnerProduct2
I0226 23:23:42.485792 102012 net.cpp:148] Top shape: 128 4096 (524288)
I0226 23:23:42.485798 102012 net.cpp:156] Memory required for data: 19988992
I0226 23:23:42.485816 102012 layer_factory.hpp:77] Creating layer Sigmoid2
I0226 23:23:42.485831 102012 net.cpp:91] Creating Layer Sigmoid2
I0226 23:23:42.485838 102012 net.cpp:425] Sigmoid2 <- InnerProduct2
I0226 23:23:42.485846 102012 net.cpp:386] Sigmoid2 -> InnerProduct2 (in-place)
I0226 23:23:42.486105 102012 net.cpp:141] Setting up Sigmoid2
I0226 23:23:42.486156 102012 net.cpp:148] Top shape: 128 4096 (524288)
I0226 23:23:42.486161 102012 net.cpp:156] Memory required for data: 22086144
I0226 23:23:42.486166 102012 layer_factory.hpp:77] Creating layer InnerProduct3
I0226 23:23:42.486176 102012 net.cpp:91] Creating Layer InnerProduct3
I0226 23:23:42.486181 102012 net.cpp:425] InnerProduct3 <- InnerProduct2
I0226 23:23:42.486188 102012 net.cpp:399] InnerProduct3 -> InnerProduct3
I0226 23:23:42.777631 102012 net.cpp:141] Setting up InnerProduct3
I0226 23:23:42.777683 102012 net.cpp:148] Top shape: 128 26752 (3424256)
I0226 23:23:42.777688 102012 net.cpp:156] Memory required for data: 35783168
I0226 23:23:42.777712 102012 layer_factory.hpp:77] Creating layer SoftmaxWithLoss1
I0226 23:23:42.777747 102012 net.cpp:91] Creating Layer SoftmaxWithLoss1
I0226 23:23:42.777755 102012 net.cpp:425] SoftmaxWithLoss1 <- InnerProduct3
I0226 23:23:42.777762 102012 net.cpp:425] SoftmaxWithLoss1 <- Data2
I0226 23:23:42.777772 102012 net.cpp:399] SoftmaxWithLoss1 -> SoftmaxWithLoss1
…
