I0227 00:11:44.979156 106967 caffe.cpp:343] Use GPU with device ID 0
I0227 00:11:45.583173 106967 net.cpp:58] Initializing net from parameters: 
state {
  phase: TRAIN
  level: 0
  stage: ""
}
layer {
  name: "Data1"
  type: "Data"
  top: "Data1"
  top: "Data2"
  data_param {
    source: "/home/comp/csshshi/data/caffe/fake_data26752.lmdb"
    batch_size: 1024
    backend: LMDB
  }
}
layer {
  name: "InnerProduct1"
  type: "InnerProduct"
  bottom: "Data1"
  top: "InnerProduct1"
  inner_product_param {
    num_output: 4096
  }
}
layer {
  name: "Sigmoid1"
  type: "Sigmoid"
  bottom: "InnerProduct1"
  top: "InnerProduct1"
}
layer {
  name: "InnerProduct2"
  type: "InnerProduct"
  bottom: "InnerProduct1"
  top: "InnerProduct2"
  inner_product_param {
    num_output: 4096
  }
}
layer {
  name: "Sigmoid2"
  type: "Sigmoid"
  bottom: "InnerProduct2"
  top: "InnerProduct2"
}
layer {
  name: "InnerProduct3"
  type: "InnerProduct"
  bottom: "InnerProduct2"
  top: "InnerProduct3"
  inner_product_param {
    num_output: 26752
  }
}
layer {
  name: "SoftmaxWithLoss1"
  type: "SoftmaxWithLoss"
  bottom: "InnerProduct3"
  bottom: "Data2"
  top: "SoftmaxWithLoss1"
}
I0227 00:11:45.583348 106967 layer_factory.hpp:77] Creating layer Data1
I0227 00:11:45.585490 106967 net.cpp:100] Creating Layer Data1
I0227 00:11:45.585527 106967 net.cpp:408] Data1 -> Data1
I0227 00:11:45.585577 106967 net.cpp:408] Data1 -> Data2
I0227 00:11:45.588928 106970 db_lmdb.cpp:35] Opened lmdb /home/comp/csshshi/data/caffe/fake_data26752.lmdb
I0227 00:11:45.617138 106967 data_layer.cpp:41] output data size: 1024,1,1,26752
I0227 00:11:45.854404 106967 net.cpp:150] Setting up Data1
I0227 00:11:45.854490 106967 net.cpp:157] Top shape: 1024 1 1 26752 (27394048)
I0227 00:11:45.854499 106967 net.cpp:157] Top shape: 1024 (1024)
I0227 00:11:45.854503 106967 net.cpp:165] Memory required for data: 109580288
I0227 00:11:45.854517 106967 layer_factory.hpp:77] Creating layer InnerProduct1
I0227 00:11:45.854543 106967 net.cpp:100] Creating Layer InnerProduct1
I0227 00:11:45.854552 106967 net.cpp:434] InnerProduct1 <- Data1
I0227 00:11:45.854573 106967 net.cpp:408] InnerProduct1 -> InnerProduct1
I0227 00:11:46.073802 106971 blocking_queue.cpp:50] Waiting for data
I0227 00:11:46.142391 106967 net.cpp:150] Setting up InnerProduct1
I0227 00:11:46.142433 106967 net.cpp:157] Top shape: 1024 4096 (4194304)
I0227 00:11:46.142438 106967 net.cpp:165] Memory required for data: 126357504
I0227 00:11:46.142483 106967 layer_factory.hpp:77] Creating layer Sigmoid1
I0227 00:11:46.142503 106967 net.cpp:100] Creating Layer Sigmoid1
I0227 00:11:46.142508 106967 net.cpp:434] Sigmoid1 <- InnerProduct1
I0227 00:11:46.142519 106967 net.cpp:395] Sigmoid1 -> InnerProduct1 (in-place)
I0227 00:11:46.340541 106971 blocking_queue.cpp:50] Waiting for data
I0227 00:11:46.443143 106967 net.cpp:150] Setting up Sigmoid1
I0227 00:11:46.443192 106967 net.cpp:157] Top shape: 1024 4096 (4194304)
I0227 00:11:46.443197 106967 net.cpp:165] Memory required for data: 143134720
I0227 00:11:46.443207 106967 layer_factory.hpp:77] Creating layer InnerProduct2
I0227 00:11:46.443254 106967 net.cpp:100] Creating Layer InnerProduct2
I0227 00:11:46.443261 106967 net.cpp:434] InnerProduct2 <- InnerProduct1
I0227 00:11:46.443292 106967 net.cpp:408] InnerProduct2 -> InnerProduct2
I0227 00:11:46.488668 106967 net.cpp:150] Setting up InnerProduct2
I0227 00:11:46.488740 106967 net.cpp:157] Top shape: 1024 4096 (4194304)
I0227 00:11:46.488752 106967 net.cpp:165] Memory required for data: 159911936
I0227 00:11:46.488767 106967 layer_factory.hpp:77] Creating layer Sigmoid2
I0227 00:11:46.488790 106967 net.cpp:100] Creating Layer Sigmoid2
I0227 00:11:46.488796 106967 net.cpp:434] Sigmoid2 <- InnerProduct2
I0227 00:11:46.488806 106967 net.cpp:395] Sigmoid2 -> InnerProduct2 (in-place)
I0227 00:11:46.489131 106967 net.cpp:150] Setting up Sigmoid2
I0227 00:11:46.489145 106967 net.cpp:157] Top shape: 1024 4096 (4194304)
I0227 00:11:46.489148 106967 net.cpp:165] Memory required for data: 176689152
I0227 00:11:46.489153 106967 layer_factory.hpp:77] Creating layer InnerProduct3
I0227 00:11:46.489167 106967 net.cpp:100] Creating Layer InnerProduct3
I0227 00:11:46.489199 106967 net.cpp:434] InnerProduct3 <- InnerProduct2
I0227 00:11:46.489207 106967 net.cpp:408] InnerProduct3 -> InnerProduct3
I0227 00:11:46.775260 106967 net.cpp:150] Setting up InnerProduct3
I0227 00:11:46.775305 106967 net.cpp:157] Top shape: 1024 26752 (27394048)
I0227 00:11:46.775310 106967 net.cpp:165] Memory required for data: 286265344
I0227 00:11:46.775326 106967 layer_factory.hpp:77] Creating layer SoftmaxWithLoss1
I0227 00:11:46.775365 106967 net.cpp:100] Creating Layer SoftmaxWithLoss1
I0227 00:11:46.775372 106967 net.cpp:434] SoftmaxWithLoss1 <- InnerProduct3
I0227 00:11:46.775379 106967 net.cpp:434] SoftmaxWithLoss1 <- Data2
I0227 00:11:46.775418 106967 net.cpp:408] SoftmaxWithLoss1 -> SoftmaxWithLoss1
…
