I0227 22:36:02.437531 28317 caffe.cpp:343] Use GPU with device ID 0
I0227 22:36:03.109720 28317 net.cpp:58] Initializing net from parameters: 
state {
  phase: TRAIN
  level: 0
  stage: ""
}
layer {
  name: "Data1"
  type: "Data"
  top: "Data1"
  top: "Data2"
  data_param {
    source: "/home/comp/csshshi/data/caffe/fake_data26752.lmdb"
    batch_size: 128
    backend: LMDB
  }
}
layer {
  name: "InnerProduct1"
  type: "InnerProduct"
  bottom: "Data1"
  top: "InnerProduct1"
  inner_product_param {
    num_output: 4096
  }
}
layer {
  name: "Sigmoid1"
  type: "Sigmoid"
  bottom: "InnerProduct1"
  top: "InnerProduct1"
}
layer {
  name: "InnerProduct2"
  type: "InnerProduct"
  bottom: "InnerProduct1"
  top: "InnerProduct2"
  inner_product_param {
    num_output: 4096
  }
}
layer {
  name: "Sigmoid2"
  type: "Sigmoid"
  bottom: "InnerProduct2"
  top: "InnerProduct2"
}
layer {
  name: "InnerProduct3"
  type: "InnerProduct"
  bottom: "InnerProduct2"
  top: "InnerProduct3"
  inner_product_param {
    num_output: 26752
  }
}
layer {
  name: "SoftmaxWithLoss1"
  type: "SoftmaxWithLoss"
  bottom: "InnerProduct3"
  bottom: "Data2"
  top: "SoftmaxWithLoss1"
}
I0227 22:36:03.109897 28317 layer_factory.hpp:77] Creating layer Data1
I0227 22:36:03.111310 28317 net.cpp:100] Creating Layer Data1
I0227 22:36:03.111335 28317 net.cpp:408] Data1 -> Data1
I0227 22:36:03.111368 28317 net.cpp:408] Data1 -> Data2
I0227 22:36:03.115036 28320 db_lmdb.cpp:35] Opened lmdb /home/comp/csshshi/data/caffe/fake_data26752.lmdb
I0227 22:36:03.140982 28317 data_layer.cpp:41] output data size: 128,1,1,26752
I0227 22:36:03.182338 28317 net.cpp:150] Setting up Data1
I0227 22:36:03.182471 28317 net.cpp:157] Top shape: 128 1 1 26752 (3424256)
I0227 22:36:03.182482 28317 net.cpp:157] Top shape: 128 (128)
I0227 22:36:03.182485 28317 net.cpp:165] Memory required for data: 13697536
I0227 22:36:03.182502 28317 layer_factory.hpp:77] Creating layer InnerProduct1
I0227 22:36:03.182538 28317 net.cpp:100] Creating Layer InnerProduct1
I0227 22:36:03.182546 28317 net.cpp:434] InnerProduct1 <- Data1
I0227 22:36:03.182572 28317 net.cpp:408] InnerProduct1 -> InnerProduct1
I0227 22:36:03.428227 28321 blocking_queue.cpp:50] Waiting for data
I0227 22:36:03.570322 28317 net.cpp:150] Setting up InnerProduct1
I0227 22:36:03.570380 28317 net.cpp:157] Top shape: 128 4096 (524288)
I0227 22:36:03.570385 28317 net.cpp:165] Memory required for data: 15794688
I0227 22:36:03.570437 28317 layer_factory.hpp:77] Creating layer Sigmoid1
I0227 22:36:03.570458 28317 net.cpp:100] Creating Layer Sigmoid1
I0227 22:36:03.570464 28317 net.cpp:434] Sigmoid1 <- InnerProduct1
I0227 22:36:03.570475 28317 net.cpp:395] Sigmoid1 -> InnerProduct1 (in-place)
