I0227 10:04:13.751858 23243 caffe.cpp:308] Use GPU with device ID 0
I0227 10:04:14.045258 23243 common.cpp:128] Start to init xgboost ......
I0227 10:04:14.046219 23243 common.cpp:162] Init xgboost finished!
I0227 10:04:14.048769 23243 net.cpp:49] Initializing net from parameters: 
state {
  phase: TRAIN
}
layer {
  name: "Data1"
  type: "Data"
  top: "Data1"
  top: "Data2"
  data_param {
    source: "/home/shshi/data/caffe/fake_data26752.lmdb"
    batch_size: 512
    backend: LMDB
  }
}
layer {
  name: "InnerProduct1"
  type: "InnerProduct"
  bottom: "Data1"
  top: "InnerProduct1"
  inner_product_param {
    num_output: 4096
  }
}
layer {
  name: "Sigmoid1"
  type: "Sigmoid"
  bottom: "InnerProduct1"
  top: "InnerProduct1"
}
layer {
  name: "InnerProduct2"
  type: "InnerProduct"
  bottom: "InnerProduct1"
  top: "InnerProduct2"
  inner_product_param {
    num_output: 4096
  }
}
layer {
  name: "Sigmoid2"
  type: "Sigmoid"
  bottom: "InnerProduct2"
  top: "InnerProduct2"
}
layer {
  name: "InnerProduct3"
  type: "InnerProduct"
  bottom: "InnerProduct2"
  top: "InnerProduct3"
  inner_product_param {
    num_output: 26752
  }
}
layer {
  name: "SoftmaxWithLoss1"
  type: "SoftmaxWithLoss"
  bottom: "InnerProduct3"
  bottom: "Data2"
  top: "SoftmaxWithLoss1"
}
I0227 10:04:14.048842 23243 layer_factory.hpp:77] Creating layer Data1
I0227 10:04:14.049643 23243 net.cpp:91] Creating Layer Data1
I0227 10:04:14.049670 23243 net.cpp:399] Data1 -> Data1
I0227 10:04:14.049715 23243 net.cpp:399] Data1 -> Data2
I0227 10:04:14.050387 23269 common.cpp:128] Start to init xgboost ......
I0227 10:04:14.051259 23269 common.cpp:162] Init xgboost finished!
I0227 10:04:14.051364 23269 db_lmdb.cpp:35] Opened lmdb /home/shshi/data/caffe/fake_data26752.lmdb
I0227 10:04:14.079890 23243 data_layer.cpp:41] output data size: 512,1,1,26752
I0227 10:04:14.191196 23243 net.cpp:141] Setting up Data1
I0227 10:04:14.191268 23243 net.cpp:148] Top shape: 512 1 1 26752 (13697024)
I0227 10:04:14.191277 23243 net.cpp:148] Top shape: 512 (512)
I0227 10:04:14.191280 23243 net.cpp:156] Memory required for data: 54790144
I0227 10:04:14.191292 23243 layer_factory.hpp:77] Creating layer InnerProduct1
I0227 10:04:14.191308 23243 net.cpp:91] Creating Layer InnerProduct1
I0227 10:04:14.191314 23243 net.cpp:425] InnerProduct1 <- Data1
I0227 10:04:14.191326 23243 net.cpp:399] InnerProduct1 -> InnerProduct1
I0227 10:04:14.306530 23281 common.cpp:128] Start to init xgboost ......
I0227 10:04:14.308056 23281 common.cpp:162] Init xgboost finished!
I0227 10:04:14.400110 23243 net.cpp:141] Setting up InnerProduct1
I0227 10:04:14.400144 23243 net.cpp:148] Top shape: 512 4096 (2097152)
I0227 10:04:14.400149 23243 net.cpp:156] Memory required for data: 63178752
I0227 10:04:14.400177 23243 layer_factory.hpp:77] Creating layer Sigmoid1
I0227 10:04:14.400194 23243 net.cpp:91] Creating Layer Sigmoid1
I0227 10:04:14.400200 23243 net.cpp:425] Sigmoid1 <- InnerProduct1
I0227 10:04:14.400207 23243 net.cpp:386] Sigmoid1 -> InnerProduct1 (in-place)
I0227 10:04:14.596743 23243 net.cpp:141] Setting up Sigmoid1
I0227 10:04:14.596779 23243 net.cpp:148] Top shape: 512 4096 (2097152)
I0227 10:04:14.596784 23243 net.cpp:156] Memory required for data: 71567360
I0227 10:04:14.596791 23243 layer_factory.hpp:77] Creating layer InnerProduct2
I0227 10:04:14.596802 23243 net.cpp:91] Creating Layer InnerProduct2
I0227 10:04:14.596807 23243 net.cpp:425] InnerProduct2 <- InnerProduct1
I0227 10:04:14.596814 23243 net.cpp:399] InnerProduct2 -> InnerProduct2
I0227 10:04:14.628736 23243 net.cpp:141] Setting up InnerProduct2
I0227 10:04:14.628777 23243 net.cpp:148] Top shape: 512 4096 (2097152)
I0227 10:04:14.628780 23243 net.cpp:156] Memory required for data: 79955968
I0227 10:04:14.628793 23243 layer_factory.hpp:77] Creating layer Sigmoid2
I0227 10:04:14.628803 23243 net.cpp:91] Creating Layer Sigmoid2
I0227 10:04:14.628808 23243 net.cpp:425] Sigmoid2 <- InnerProduct2
I0227 10:04:14.628814 23243 net.cpp:386] Sigmoid2 -> InnerProduct2 (in-place)
I0227 10:04:14.629012 23243 net.cpp:141] Setting up Sigmoid2
I0227 10:04:14.629021 23243 net.cpp:148] Top shape: 512 4096 (2097152)
I0227 10:04:14.629034 23243 net.cpp:156] Memory required for data: 88344576
I0227 10:04:14.629046 23243 layer_factory.hpp:77] Creating layer InnerProduct3
I0227 10:04:14.629056 23243 net.cpp:91] Creating Layer InnerProduct3
I0227 10:04:14.629060 23243 net.cpp:425] InnerProduct3 <- InnerProduct2
I0227 10:04:14.629065 23243 net.cpp:399] InnerProduct3 -> InnerProduct3
I0227 10:04:14.831364 23243 net.cpp:141] Setting up InnerProduct3
I0227 10:04:14.831401 23243 net.cpp:148] Top shape: 512 26752 (13697024)
I0227 10:04:14.831405 23243 net.cpp:156] Memory required for data: 143132672
I0227 10:04:14.831418 23243 layer_factory.hpp:77] Creating layer SoftmaxWithLoss1
I0227 10:04:14.831430 23243 net.cpp:91] Creating Layer SoftmaxWithLoss1
I0227 10:04:14.831434 23243 net.cpp:425] SoftmaxWithLoss1 <- InnerProduct3
I0227 10:04:14.831441 23243 net.cpp:425] SoftmaxWithLoss1 <- Data2
I0227 10:04:14.831447 23243 net.cpp:399] SoftmaxWithLoss1 -> SoftmaxWithLoss1
…
