…
I0227 11:22:57.146641 13876 common.cpp:128] Start to init xgboost ......
I0227 11:22:57.169651 13876 common.cpp:163] Init xgboost finished!
I0227 11:22:57.171001 13876 common.cpp:219] Set device properties
I0227 11:22:57.171015 13876 common.cpp:229] Set device properties finished
I0227 11:22:57.172302 13876 net.cpp:49] Initializing net from parameters: 
state {
  phase: TRAIN
}
layer {
  name: "Data1"
  type: "Data"
  top: "Data1"
  top: "Data2"
  data_param {
    source: "/home/dl/data/caffe/fake_data26752.lmdb"
    batch_size: 256
    backend: LMDB
  }
}
layer {
  name: "InnerProduct1"
  type: "InnerProduct"
  bottom: "Data1"
  top: "InnerProduct1"
  inner_product_param {
    num_output: 4096
  }
}
layer {
  name: "Sigmoid1"
  type: "Sigmoid"
  bottom: "InnerProduct1"
  top: "InnerProduct1"
}
layer {
  name: "InnerProduct2"
  type: "InnerProduct"
  bottom: "InnerProduct1"
  top: "InnerProduct2"
  inner_product_param {
    num_output: 4096
  }
}
layer {
  name: "Sigmoid2"
  type: "Sigmoid"
  bottom: "InnerProduct2"
  top: "InnerProduct2"
}
layer {
  name: "InnerProduct3"
  type: "InnerProduct"
  bottom: "InnerProduct2"
  top: "InnerProduct3"
  inner_product_param {
    num_output: 26752
  }
}
layer {
  name: "SoftmaxWithLoss1"
  type: "SoftmaxWithLoss"
  bottom: "InnerProduct3"
  bottom: "Data2"
  top: "SoftmaxWithLoss1"
}
I0227 11:22:57.172359 13876 layer_factory.hpp:77] Creating layer Data1
I0227 11:22:57.172725 13876 net.cpp:91] Creating Layer Data1
I0227 11:22:57.172739 13876 net.cpp:399] Data1 -> Data1
I0227 11:22:57.172763 13876 net.cpp:399] Data1 -> Data2
I0227 11:22:57.173344 13889 common.cpp:128] Start to init xgboost ......
I0227 11:22:57.174392 13889 common.cpp:163] Init xgboost finished!
I0227 11:22:57.174589 13889 db_lmdb.cpp:35] Opened lmdb /home/dl/data/caffe/fake_data26752.lmdb
I0227 11:22:57.183459 13876 data_layer.cpp:41] output data size: 256,1,1,26752
I0227 11:22:57.223937 13876 net.cpp:141] Setting up Data1
I0227 11:22:57.224004 13876 net.cpp:148] Top shape: 256 1 1 26752 (6848512)
I0227 11:22:57.224012 13876 net.cpp:148] Top shape: 256 (256)
I0227 11:22:57.224019 13876 net.cpp:156] Memory required for data: 27395072
I0227 11:22:57.224031 13876 layer_factory.hpp:77] Creating layer InnerProduct1
I0227 11:22:57.224211 13876 net.cpp:91] Creating Layer InnerProduct1
I0227 11:22:57.224261 13876 net.cpp:425] InnerProduct1 <- Data1
I0227 11:22:57.224277 13876 net.cpp:399] InnerProduct1 -> InnerProduct1
I0227 11:22:57.319352 13897 common.cpp:128] Start to init xgboost ......
I0227 11:22:57.397936 13876 net.cpp:141] Setting up InnerProduct1
I0227 11:22:57.397985 13876 net.cpp:148] Top shape: 256 4096 (1048576)
I0227 11:22:57.397992 13876 net.cpp:156] Memory required for data: 31589376
I0227 11:22:57.398015 13876 layer_factory.hpp:77] Creating layer Sigmoid1
I0227 11:22:57.398031 13876 net.cpp:91] Creating Layer Sigmoid1
I0227 11:22:57.398038 13876 net.cpp:425] Sigmoid1 <- InnerProduct1
I0227 11:22:57.398047 13876 net.cpp:386] Sigmoid1 -> InnerProduct1 (in-place)
I0227 11:22:57.510658 13897 common.cpp:163] Init xgboost finished!
I0227 11:22:57.605823 13876 net.cpp:141] Setting up Sigmoid1
I0227 11:22:57.605865 13876 net.cpp:148] Top shape: 256 4096 (1048576)
I0227 11:22:57.605872 13876 net.cpp:156] Memory required for data: 35783680
I0227 11:22:57.605881 13876 layer_factory.hpp:77] Creating layer InnerProduct2
I0227 11:22:57.605896 13876 net.cpp:91] Creating Layer InnerProduct2
I0227 11:22:57.605904 13876 net.cpp:425] InnerProduct2 <- InnerProduct1
I0227 11:22:57.605914 13876 net.cpp:399] InnerProduct2 -> InnerProduct2
I0227 11:22:57.631763 13876 net.cpp:141] Setting up InnerProduct2
I0227 11:22:57.631814 13876 net.cpp:148] Top shape: 256 4096 (1048576)
I0227 11:22:57.631820 13876 net.cpp:156] Memory required for data: 39977984
I0227 11:22:57.631839 13876 layer_factory.hpp:77] Creating layer Sigmoid2
I0227 11:22:57.631852 13876 net.cpp:91] Creating Layer Sigmoid2
I0227 11:22:57.631860 13876 net.cpp:425] Sigmoid2 <- InnerProduct2
I0227 11:22:57.631868 13876 net.cpp:386] Sigmoid2 -> InnerProduct2 (in-place)
I0227 11:22:57.632063 13876 net.cpp:141] Setting up Sigmoid2
I0227 11:22:57.632086 13876 net.cpp:148] Top shape: 256 4096 (1048576)
I0227 11:22:57.632093 13876 net.cpp:156] Memory required for data: 44172288
I0227 11:22:57.632099 13876 layer_factory.hpp:77] Creating layer InnerProduct3
I0227 11:22:57.632110 13876 net.cpp:91] Creating Layer InnerProduct3
I0227 11:22:57.632117 13876 net.cpp:425] InnerProduct3 <- InnerProduct2
I0227 11:22:57.632125 13876 net.cpp:399] InnerProduct3 -> InnerProduct3
I0227 11:22:57.796672 13876 net.cpp:141] Setting up InnerProduct3
I0227 11:22:57.796718 13876 net.cpp:148] Top shape: 256 26752 (6848512)
I0227 11:22:57.796725 13876 net.cpp:156] Memory required for data: 71566336
I0227 11:22:57.796743 13876 layer_factory.hpp:77] Creating layer SoftmaxWithLoss1
I0227 11:22:57.796756 13876 net.cpp:91] Creating Layer SoftmaxWithLoss1
I0227 11:22:57.796764 13876 net.cpp:425] SoftmaxWithLoss1 <- InnerProduct3
I0227 11:22:57.796773 13876 net.cpp:425] SoftmaxWithLoss1 <- Data2
I0227 11:22:57.796783 13876 net.cpp:399] SoftmaxWithLoss1 -> SoftmaxWithLoss1
…
