…
I0227 23:15:57.998296 39653 common.cpp:128] Start to init xgboost ......
[23:15:57] include/dmlc/logging.h:235: [23:15:57] src/io/local_filesys.cc:154: Check failed: allow_null  LocalFileSystem: fail to open "/tmp/xgboostgemm2.model"
I0227 23:15:58.003237 39653 common.cpp:163] Init xgboost finished!
I0227 23:15:58.006625 39653 net.cpp:49] Initializing net from parameters: 
state {
  phase: TRAIN
}
layer {
  name: "Data1"
  type: "Data"
  top: "Data1"
  top: "Data2"
  data_param {
    source: "/home/comp/csshshi/data/caffe/fake_data26752.lmdb"
    batch_size: 2048
    backend: LMDB
  }
}
layer {
  name: "InnerProduct1"
  type: "InnerProduct"
  bottom: "Data1"
  top: "InnerProduct1"
  inner_product_param {
    num_output: 4096
  }
}
layer {
  name: "Sigmoid1"
  type: "Sigmoid"
  bottom: "InnerProduct1"
  top: "InnerProduct1"
}
layer {
  name: "InnerProduct2"
  type: "InnerProduct"
  bottom: "InnerProduct1"
  top: "InnerProduct2"
  inner_product_param {
    num_output: 4096
  }
}
layer {
  name: "Sigmoid2"
  type: "Sigmoid"
  bottom: "InnerProduct2"
  top: "InnerProduct2"
}
layer {
  name: "InnerProduct3"
  type: "InnerProduct"
  bottom: "InnerProduct2"
  top: "InnerProduct3"
  inner_product_param {
    num_output: 26752
  }
}
layer {
  name: "SoftmaxWithLoss1"
  type: "SoftmaxWithLoss"
  bottom: "InnerProduct3"
  bottom: "Data2"
  top: "SoftmaxWithLoss1"
}
I0227 23:15:58.006734 39653 layer_factory.hpp:77] Creating layer Data1
I0227 23:15:58.008939 39653 net.cpp:91] Creating Layer Data1
I0227 23:15:58.008965 39653 net.cpp:399] Data1 -> Data1
I0227 23:15:58.009034 39653 net.cpp:399] Data1 -> Data2
I0227 23:15:58.010756 39695 common.cpp:128] Start to init xgboost ......
[23:15:58] include/dmlc/logging.h:235: [23:15:58] src/io/local_filesys.cc:154: Check failed: allow_null  LocalFileSystem: fail to open "/tmp/xgboostgemm2.model"
I0227 23:15:58.013716 39695 common.cpp:163] Init xgboost finished!
I0227 23:15:58.015542 39695 db_lmdb.cpp:35] Opened lmdb /home/comp/csshshi/data/caffe/fake_data26752.lmdb
I0227 23:15:58.030436 39653 data_layer.cpp:41] output data size: 2048,1,1,26752
I0227 23:15:58.613626 39653 net.cpp:141] Setting up Data1
I0227 23:15:58.613742 39653 net.cpp:148] Top shape: 2048 1 1 26752 (54788096)
I0227 23:15:58.613749 39653 net.cpp:148] Top shape: 2048 (2048)
I0227 23:15:58.613752 39653 net.cpp:156] Memory required for data: 219160576
I0227 23:15:58.613767 39653 layer_factory.hpp:77] Creating layer InnerProduct1
I0227 23:15:58.613790 39653 net.cpp:91] Creating Layer InnerProduct1
I0227 23:15:58.613797 39653 net.cpp:425] InnerProduct1 <- Data1
I0227 23:15:58.613818 39653 net.cpp:399] InnerProduct1 -> InnerProduct1
I0227 23:15:58.800568 39735 common.cpp:128] Start to init xgboost ......
[23:15:58] include/dmlc/logging.h:235: [23:15:58] src/io/local_filesys.cc:154: Check failed: allow_null  LocalFileSystem: fail to open "/tmp/xgboostgemm2.model"
I0227 23:15:58.804097 39735 common.cpp:163] Init xgboost finished!
I0227 23:15:58.938539 39653 net.cpp:141] Setting up InnerProduct1
I0227 23:15:58.938591 39653 net.cpp:148] Top shape: 2048 4096 (8388608)
I0227 23:15:58.938596 39653 net.cpp:156] Memory required for data: 252715008
I0227 23:15:58.938642 39653 layer_factory.hpp:77] Creating layer Sigmoid1
I0227 23:15:58.938714 39653 net.cpp:91] Creating Layer Sigmoid1
I0227 23:15:58.938721 39653 net.cpp:425] Sigmoid1 <- InnerProduct1
I0227 23:15:58.938727 39653 net.cpp:386] Sigmoid1 -> InnerProduct1 (in-place)
I0227 23:15:59.168032 39735 blocking_queue.cpp:50] Waiting for data
I0227 23:15:59.233968 39653 net.cpp:141] Setting up Sigmoid1
I0227 23:15:59.234017 39653 net.cpp:148] Top shape: 2048 4096 (8388608)
I0227 23:15:59.234024 39653 net.cpp:156] Memory required for data: 286269440
I0227 23:15:59.234033 39653 layer_factory.hpp:77] Creating layer InnerProduct2
I0227 23:15:59.234071 39653 net.cpp:91] Creating Layer InnerProduct2
I0227 23:15:59.234078 39653 net.cpp:425] InnerProduct2 <- InnerProduct1
I0227 23:15:59.234091 39653 net.cpp:399] InnerProduct2 -> InnerProduct2
I0227 23:15:59.289763 39653 net.cpp:141] Setting up InnerProduct2
I0227 23:15:59.289814 39653 net.cpp:148] Top shape: 2048 4096 (8388608)
I0227 23:15:59.289820 39653 net.cpp:156] Memory required for data: 319823872
I0227 23:15:59.289840 39653 layer_factory.hpp:77] Creating layer Sigmoid2
I0227 23:15:59.289858 39653 net.cpp:91] Creating Layer Sigmoid2
I0227 23:15:59.289865 39653 net.cpp:425] Sigmoid2 <- InnerProduct2
I0227 23:15:59.289897 39653 net.cpp:386] Sigmoid2 -> InnerProduct2 (in-place)
I0227 23:15:59.290171 39653 net.cpp:141] Setting up Sigmoid2
I0227 23:15:59.290215 39653 net.cpp:148] Top shape: 2048 4096 (8388608)
I0227 23:15:59.290220 39653 net.cpp:156] Memory required for data: 353378304
I0227 23:15:59.290225 39653 layer_factory.hpp:77] Creating layer InnerProduct3
I0227 23:15:59.290235 39653 net.cpp:91] Creating Layer InnerProduct3
I0227 23:15:59.290240 39653 net.cpp:425] InnerProduct3 <- InnerProduct2
I0227 23:15:59.290247 39653 net.cpp:399] InnerProduct3 -> InnerProduct3
I0227 23:15:59.596472 39735 blocking_queue.cpp:50] Waiting for data
I0227 23:15:59.655439 39653 net.cpp:141] Setting up InnerProduct3
I0227 23:15:59.655493 39653 net.cpp:148] Top shape: 2048 26752 (54788096)
I0227 23:15:59.655499 39653 net.cpp:156] Memory required for data: 572530688
I0227 23:15:59.655520 39653 layer_factory.hpp:77] Creating layer SoftmaxWithLoss1
I0227 23:15:59.655542 39653 net.cpp:91] Creating Layer SoftmaxWithLoss1
I0227 23:15:59.655550 39653 net.cpp:425] SoftmaxWithLoss1 <- InnerProduct3
I0227 23:15:59.655557 39653 net.cpp:425] SoftmaxWithLoss1 <- Data2
I0227 23:15:59.655576 39653 net.cpp:399] SoftmaxWithLoss1 -> SoftmaxWithLoss1
…
