I0226 22:41:54.589848  8501 caffe.cpp:308] Use GPU with device ID 0
I0226 22:41:54.902994  8501 net.cpp:49] Initializing net from parameters: 
state {
  phase: TRAIN
}
layer {
  name: "Data1"
  type: "Data"
  top: "Data1"
  top: "Data2"
  data_param {
    source: "/home/dl/data/caffe/fake_data26752.lmdb"
    batch_size: 256
    backend: LMDB
  }
}
layer {
  name: "InnerProduct1"
  type: "InnerProduct"
  bottom: "Data1"
  top: "InnerProduct1"
  inner_product_param {
    num_output: 4096
  }
}
layer {
  name: "Sigmoid1"
  type: "Sigmoid"
  bottom: "InnerProduct1"
  top: "InnerProduct1"
}
layer {
  name: "InnerProduct2"
  type: "InnerProduct"
  bottom: "InnerProduct1"
  top: "InnerProduct2"
  inner_product_param {
    num_output: 4096
  }
}
layer {
  name: "Sigmoid2"
  type: "Sigmoid"
  bottom: "InnerProduct2"
  top: "InnerProduct2"
}
layer {
  name: "InnerProduct3"
  type: "InnerProduct"
  bottom: "InnerProduct2"
  top: "InnerProduct3"
  inner_product_param {
    num_output: 26752
  }
}
layer {
  name: "SoftmaxWithLoss1"
  type: "SoftmaxWithLoss"
  bottom: "InnerProduct3"
  bottom: "Data2"
  top: "SoftmaxWithLoss1"
}
I0226 22:41:54.903075  8501 layer_factory.hpp:77] Creating layer Data1
I0226 22:41:54.903460  8501 net.cpp:91] Creating Layer Data1
I0226 22:41:54.903475  8501 net.cpp:399] Data1 -> Data1
I0226 22:41:54.903498  8501 net.cpp:399] Data1 -> Data2
I0226 22:41:54.904224  8508 db_lmdb.cpp:35] Opened lmdb /home/dl/data/caffe/fake_data26752.lmdb
I0226 22:41:54.919601  8501 data_layer.cpp:41] output data size: 256,1,1,26752
I0226 22:41:54.961232  8501 net.cpp:141] Setting up Data1
I0226 22:41:54.961293  8501 net.cpp:148] Top shape: 256 1 1 26752 (6848512)
I0226 22:41:54.961303  8501 net.cpp:148] Top shape: 256 (256)
I0226 22:41:54.961309  8501 net.cpp:156] Memory required for data: 27395072
I0226 22:41:54.961323  8501 layer_factory.hpp:77] Creating layer InnerProduct1
I0226 22:41:54.961338  8501 net.cpp:91] Creating Layer InnerProduct1
I0226 22:41:54.961347  8501 net.cpp:425] InnerProduct1 <- Data1
I0226 22:41:54.961362  8501 net.cpp:399] InnerProduct1 -> InnerProduct1
I0226 22:41:55.143401  8501 net.cpp:141] Setting up InnerProduct1
I0226 22:41:55.143450  8501 net.cpp:148] Top shape: 256 4096 (1048576)
I0226 22:41:55.143458  8501 net.cpp:156] Memory required for data: 31589376
I0226 22:41:55.143481  8501 layer_factory.hpp:77] Creating layer Sigmoid1
I0226 22:41:55.143497  8501 net.cpp:91] Creating Layer Sigmoid1
I0226 22:41:55.143507  8501 net.cpp:425] Sigmoid1 <- InnerProduct1
I0226 22:41:55.143515  8501 net.cpp:386] Sigmoid1 -> InnerProduct1 (in-place)
I0226 22:41:55.326062  8501 net.cpp:141] Setting up Sigmoid1
I0226 22:41:55.326105  8501 net.cpp:148] Top shape: 256 4096 (1048576)
I0226 22:41:55.326113  8501 net.cpp:156] Memory required for data: 35783680
I0226 22:41:55.326122  8501 layer_factory.hpp:77] Creating layer InnerProduct2
I0226 22:41:55.326136  8501 net.cpp:91] Creating Layer InnerProduct2
I0226 22:41:55.326144  8501 net.cpp:425] InnerProduct2 <- InnerProduct1
I0226 22:41:55.326155  8501 net.cpp:399] InnerProduct2 -> InnerProduct2
I0226 22:41:55.352843  8501 net.cpp:141] Setting up InnerProduct2
I0226 22:41:55.352892  8501 net.cpp:148] Top shape: 256 4096 (1048576)
I0226 22:41:55.352900  8501 net.cpp:156] Memory required for data: 39977984
I0226 22:41:55.352917  8501 layer_factory.hpp:77] Creating layer Sigmoid2
I0226 22:41:55.352931  8501 net.cpp:91] Creating Layer Sigmoid2
I0226 22:41:55.352939  8501 net.cpp:425] Sigmoid2 <- InnerProduct2
I0226 22:41:55.352949  8501 net.cpp:386] Sigmoid2 -> InnerProduct2 (in-place)
I0226 22:41:55.353546  8501 net.cpp:141] Setting up Sigmoid2
I0226 22:41:55.353561  8501 net.cpp:148] Top shape: 256 4096 (1048576)
I0226 22:41:55.353569  8501 net.cpp:156] Memory required for data: 44172288
I0226 22:41:55.353575  8501 layer_factory.hpp:77] Creating layer InnerProduct3
I0226 22:41:55.353585  8501 net.cpp:91] Creating Layer InnerProduct3
I0226 22:41:55.353592  8501 net.cpp:425] InnerProduct3 <- InnerProduct2
I0226 22:41:55.353600  8501 net.cpp:399] InnerProduct3 -> InnerProduct3
I0226 22:41:55.526443  8501 net.cpp:141] Setting up InnerProduct3
I0226 22:41:55.526504  8501 net.cpp:148] Top shape: 256 26752 (6848512)
I0226 22:41:55.526512  8501 net.cpp:156] Memory required for data: 71566336
I0226 22:41:55.526530  8501 layer_factory.hpp:77] Creating layer SoftmaxWithLoss1
I0226 22:41:55.526543  8501 net.cpp:91] Creating Layer SoftmaxWithLoss1
I0226 22:41:55.526552  8501 net.cpp:425] SoftmaxWithLoss1 <- InnerProduct3
I0226 22:41:55.526561  8501 net.cpp:425] SoftmaxWithLoss1 <- Data2
I0226 22:41:55.526571  8501 net.cpp:399] SoftmaxWithLoss1 -> SoftmaxWithLoss1
…
