…
57083  2739 caffe.cpp:308] Use GPU with device ID 0
I0226 21:46:13.142472  2739 common.cpp:128] Start to init xgboost ......
I0226 21:46:13.143016  2739 common.cpp:160] L2 cache size: 2.09715e+06
I0226 21:46:13.143049  2739 common.cpp:161] Init xgboost finished!
I0226 21:46:13.144567  2739 net.cpp:49] Initializing net from parameters: 
state {
  phase: TRAIN
}
layer {
  name: "Data1"
  type: "Data"
  top: "Data1"
  top: "Data2"
  data_param {
    source: "/home/dl/data/caffe/fake_data26752.lmdb"
    batch_size: 2048
    backend: LMDB
  }
}
layer {
  name: "InnerProduct1"
  type: "InnerProduct"
  bottom: "Data1"
  top: "InnerProduct1"
  inner_product_param {
    num_output: 4096
  }
}
layer {
  name: "Sigmoid1"
  type: "Sigmoid"
  bottom: "InnerProduct1"
  top: "InnerProduct1"
}
layer {
  name: "InnerProduct2"
  type: "InnerProduct"
  bottom: "InnerProduct1"
  top: "InnerProduct2"
  inner_product_param {
    num_output: 4096
  }
}
layer {
  name: "Sigmoid2"
  type: "Sigmoid"
  bottom: "InnerProduct2"
  top: "InnerProduct2"
}
layer {
  name: "InnerProduct3"
  type: "InnerProduct"
  bottom: "InnerProduct2"
  top: "InnerProduct3"
  inner_product_param {
    num_output: 26752
  }
}
layer {
  name: "SoftmaxWithLoss1"
  type: "SoftmaxWithLoss"
  bottom: "InnerProduct3"
  bottom: "Data2"
  top: "SoftmaxWithLoss1"
}
I0226 21:46:13.144632  2739 layer_factory.hpp:77] Creating layer Data1
I0226 21:46:13.146006  2739 net.cpp:91] Creating Layer Data1
I0226 21:46:13.146025  2739 net.cpp:399] Data1 -> Data1
I0226 21:46:13.146052  2739 net.cpp:399] Data1 -> Data2
I0226 21:46:13.147850  2748 common.cpp:128] Start to init xgboost ......
I0226 21:46:13.148628  2748 common.cpp:160] L2 cache size: 2.09715e+06
I0226 21:46:13.148674  2748 common.cpp:161] Init xgboost finished!
I0226 21:46:13.148855  2748 db_lmdb.cpp:35] Opened lmdb /home/dl/data/caffe/fake_data26752.lmdb
I0226 21:46:13.166239  2739 data_layer.cpp:41] output data size: 2048,1,1,26752
I0226 21:46:13.481639  2739 net.cpp:141] Setting up Data1
I0226 21:46:13.481700  2739 net.cpp:148] Top shape: 2048 1 1 26752 (54788096)
I0226 21:46:13.481709  2739 net.cpp:148] Top shape: 2048 (2048)
I0226 21:46:13.481716  2739 net.cpp:156] Memory required for data: 219160576
I0226 21:46:13.481729  2739 layer_factory.hpp:77] Creating layer InnerProduct1
I0226 21:46:13.481746  2739 net.cpp:91] Creating Layer InnerProduct1
I0226 21:46:13.481755  2739 net.cpp:425] InnerProduct1 <- Data1
I0226 21:46:13.481770  2739 net.cpp:399] InnerProduct1 -> InnerProduct1
I0226 21:46:13.573922  2749 common.cpp:128] Start to init xgboost ......
I0226 21:46:13.576237  2749 common.cpp:160] L2 cache size: 2.09715e+06
I0226 21:46:13.576292  2749 common.cpp:161] Init xgboost finished!
I0226 21:46:13.666055  2739 net.cpp:141] Setting up InnerProduct1
I0226 21:46:13.666101  2739 net.cpp:148] Top shape: 2048 4096 (8388608)
I0226 21:46:13.666110  2739 net.cpp:156] Memory required for data: 252715008
I0226 21:46:13.666133  2739 layer_factory.hpp:77] Creating layer Sigmoid1
I0226 21:46:13.666148  2739 net.cpp:91] Creating Layer Sigmoid1
I0226 21:46:13.666157  2739 net.cpp:425] Sigmoid1 <- InnerProduct1
I0226 21:46:13.666167  2739 net.cpp:386] Sigmoid1 -> InnerProduct1 (in-place)
I0226 21:46:13.942523  2739 net.cpp:141] Setting up Sigmoid1
I0226 21:46:13.942567  2739 net.cpp:148] Top shape: 2048 4096 (8388608)
I0226 21:46:13.942574  2739 net.cpp:156] Memory required for data: 286269440
I0226 21:46:13.942584  2739 layer_factory.hpp:77] Creating layer InnerProduct2
I0226 21:46:13.942597  2739 net.cpp:91] Creating Layer InnerProduct2
I0226 21:46:13.942605  2739 net.cpp:425] InnerProduct2 <- InnerProduct1
I0226 21:46:13.942617  2739 net.cpp:399] InnerProduct2 -> InnerProduct2
I0226 21:46:13.970036  2739 net.cpp:141] Setting up InnerProduct2
I0226 21:46:13.970078  2739 net.cpp:148] Top shape: 2048 4096 (8388608)
I0226 21:46:13.970085  2739 net.cpp:156] Memory required for data: 319823872
I0226 21:46:13.970103  2739 layer_factory.hpp:77] Creating layer Sigmoid2
I0226 21:46:13.970118  2739 net.cpp:91] Creating Layer Sigmoid2
I0226 21:46:13.970135  2739 net.cpp:425] Sigmoid2 <- InnerProduct2
I0226 21:46:13.970157  2739 net.cpp:386] Sigmoid2 -> InnerProduct2 (in-place)
I0226 21:46:13.970772  2739 net.cpp:141] Setting up Sigmoid2
I0226 21:46:13.970790  2739 net.cpp:148] Top shape: 2048 4096 (8388608)
I0226 21:46:13.970798  2739 net.cpp:156] Memory required for data: 353378304
I0226 21:46:13.970805  2739 layer_factory.hpp:77] Creating layer InnerProduct3
I0226 21:46:13.970816  2739 net.cpp:91] Creating Layer InnerProduct3
I0226 21:46:13.970824  2739 net.cpp:425] InnerProduct3 <- InnerProduct2
I0226 21:46:13.970832  2739 net.cpp:399] InnerProduct3 -> InnerProduct3
I0226 21:46:14.147200  2739 net.cpp:141] Setting up InnerProduct3
I0226 21:46:14.147243  2739 net.cpp:148] Top shape: 2048 26752 (54788096)
I0226 21:46:14.147250  2739 net.cpp:156] Memory required for data: 572530688
I0226 21:46:14.147267  2739 layer_factory.hpp:77] Creating layer SoftmaxWithLoss1
I0226 21:46:14.147281  2739 net.cpp:91] Creating Layer SoftmaxWithLoss1
I0226 21:46:14.147289  2739 net.cpp:425] SoftmaxWithLoss1 <- InnerProduct3
I0226 21:46:14.147299  2739 net.cpp:425] SoftmaxWithLoss1 <- Data2
I0226 21:46:14.147308  2739 net.cpp:399] SoftmaxWithLoss1 -> SoftmaxWithLoss1
…
